{"Layers": [{
  "Name": "Reformatting CopyNode for Input Tensor 0 to /backbone/conv1/Conv + /backbone/relu/Relu + /backbone/maxpool/MaxPool",
  "LayerType": "Reformat",
  "Inputs": [
  {
    "Name": "input0",
    "Location": "Device",
    "Dimensions": [1,3,224,224],
    "Format/Datatype": "Row major linear FP32"
  }],
  "Outputs": [
  {
    "Name": "Reformatted Input Tensor 0 to /backbone/conv1/Conv + /backbone/relu/Relu + /backbone/maxpool/MaxPool",
    "Location": "Device",
    "Dimensions": [1,3,224,224],
    "Format/Datatype": "Row major Int8 format"
  }],
  "ParameterType": "Reformat",
  "Origin": "REFORMAT",
  "TacticValue": "0x00000000000003e8",
  "StreamId": 0,
  "Metadata": ""
},{
  "Name": "/backbone/conv1/Conv + /backbone/relu/Relu + /backbone/maxpool/MaxPool",
  "LayerType": "CaskConvActPool",
  "Inputs": [
  {
    "Name": "Reformatted Input Tensor 0 to /backbone/conv1/Conv + /backbone/relu/Relu + /backbone/maxpool/MaxPool",
    "Location": "Device",
    "Dimensions": [1,3,224,224],
    "Format/Datatype": "Row major Int8 format"
  }],
  "Outputs": [
  {
    "Name": "/backbone/maxpool/MaxPool_output_0",
    "Location": "Device",
    "Dimensions": [1,64,56,56],
    "Format/Datatype": "Thirty-two wide channel vectorized row major Int8 format"
  }],
  "ParameterType": "ConvActPool",
  "ConvParameterType": "Convolution",
  "ConvKernel": [7,7],
  "ConvPaddingMode": "kEXPLICIT_ROUND_DOWN",
  "ConvPrePadding": [3,3],
  "ConvPostPadding": [3,3],
  "ConvStride": [2,2],
  "ConvDilation": [1,1],
  "ConvOutMaps": 64,
  "ConvGroups": 1,
  "ConvWeights": {"Type": "Int8", "Count": 9408},
  "ConvBias": {"Type": "Float", "Count": 64},
  "ConvHasSparseWeights": 0,
  "ConvHasDynamicFilter": 0,
  "ConvHasDynamicBias": 0,
  "ConvHasResidual": 0,
  "ConvConvXAsActInputIdx": -1,
  "ConvBiasAsActInputIdx": -1,
  "ConvResAsActInputIdx": -1,
  "ConvActivation": "RELU",
  "PoolingParameterType": "Pooling",
  "PoolingPoolingType": "MAX",
  "PoolingWindowSize": [3,3],
  "PoolingPaddingMode": "kEXPLICIT_ROUND_DOWN",
  "PoolingPrePadding": [1,1],
  "PoolingPostPadding": [1,1],
  "PoolingStride": [2,2],
  "PoolingBlendFactor": 0,
  "PoolingAverageCountExcludesPadding": 1,
  "TacticValue": "0xc5730a6ceacd8913",
  "StreamId": 0,
  "Metadata": "[ONNX Layer: /backbone/conv1/Conv]\u001e[ONNX Layer: /backbone/relu/Relu]\u001e[ONNX Layer: /backbone/maxpool/MaxPool]"
},{
  "Name": "/backbone/layer1/layer1.0/conv1/Conv + /backbone/layer1/layer1.0/relu/Relu",
  "LayerType": "CaskConvolution",
  "Inputs": [
  {
    "Name": "/backbone/maxpool/MaxPool_output_0",
    "Location": "Device",
    "Dimensions": [1,64,56,56],
    "Format/Datatype": "Thirty-two wide channel vectorized row major Int8 format"
  }],
  "Outputs": [
  {
    "Name": "/backbone/layer1/layer1.0/relu/Relu_output_0",
    "Location": "Device",
    "Dimensions": [1,64,56,56],
    "Format/Datatype": "Thirty-two wide channel vectorized row major Int8 format"
  }],
  "ParameterType": "Convolution",
  "Kernel": [1,1],
  "PaddingMode": "kEXPLICIT_ROUND_DOWN",
  "PrePadding": [0,0],
  "PostPadding": [0,0],
  "Stride": [1,1],
  "Dilation": [1,1],
  "OutMaps": 64,
  "Groups": 1,
  "Weights": {"Type": "Int8", "Count": 4096},
  "Bias": {"Type": "Float", "Count": 64},
  "HasSparseWeights": 0,
  "HasDynamicFilter": 0,
  "HasDynamicBias": 0,
  "HasResidual": 0,
  "ConvXAsActInputIdx": -1,
  "BiasAsActInputIdx": -1,
  "ResAsActInputIdx": -1,
  "Activation": "RELU",
  "HasBias": 1,
  "HasReLU": 1,
  "TacticName": "sm80_xmma_fprop_implicit_gemm_interleaved_i8i8_i8i32_f32_nchw_vect_c_32kcrs_vect_c_32_nchw_vect_c_32_tilesize96x64x64_stage3_warpsize2x2x1_g1_tensor16x8x32_simple_t1r1s1",
  "TacticValue": "0x483ad1560c6e5e27",
  "StreamId": 0,
  "Metadata": "[ONNX Layer: /backbone/layer1/layer1.0/conv1/Conv]\u001e[ONNX Layer: /backbone/layer1/layer1.0/relu/Relu]"
},{
  "Name": "/backbone/layer1/layer1.0/conv2/Conv + /backbone/layer1/layer1.0/relu_1/Relu",
  "LayerType": "CaskConvolution",
  "Inputs": [
  {
    "Name": "/backbone/layer1/layer1.0/relu/Relu_output_0",
    "Location": "Device",
    "Dimensions": [1,64,56,56],
    "Format/Datatype": "Thirty-two wide channel vectorized row major Int8 format"
  }],
  "Outputs": [
  {
    "Name": "/backbone/layer1/layer1.0/relu_1/Relu_output_0",
    "Location": "Device",
    "Dimensions": [1,64,56,56],
    "Format/Datatype": "Thirty-two wide channel vectorized row major Int8 format"
  }],
  "ParameterType": "Convolution",
  "Kernel": [3,3],
  "PaddingMode": "kEXPLICIT_ROUND_DOWN",
  "PrePadding": [1,1],
  "PostPadding": [1,1],
  "Stride": [1,1],
  "Dilation": [1,1],
  "OutMaps": 64,
  "Groups": 1,
  "Weights": {"Type": "Int8", "Count": 36864},
  "Bias": {"Type": "Float", "Count": 64},
  "HasSparseWeights": 0,
  "HasDynamicFilter": 0,
  "HasDynamicBias": 0,
  "HasResidual": 0,
  "ConvXAsActInputIdx": -1,
  "BiasAsActInputIdx": -1,
  "ResAsActInputIdx": -1,
  "Activation": "RELU",
  "HasBias": 1,
  "HasReLU": 1,
  "TacticName": "sm80_xmma_fprop_implicit_gemm_interleaved_i8i8_i8i32_f32_nchw_vect_c_32kcrs_vect_c_32_nchw_vect_c_32_tilesize64x64x64_stage6_warpsize2x2x1_g1_tensor16x8x32_t1r3s3",
  "TacticValue": "0xbb88763c3b0e94d4",
  "StreamId": 0,
  "Metadata": "[ONNX Layer: /backbone/layer1/layer1.0/conv2/Conv]\u001e[ONNX Layer: /backbone/layer1/layer1.0/relu_1/Relu]"
},{
  "Name": "/backbone/layer1/layer1.0/downsample/downsample.0/Conv",
  "LayerType": "CaskConvolution",
  "Inputs": [
  {
    "Name": "/backbone/maxpool/MaxPool_output_0",
    "Location": "Device",
    "Dimensions": [1,64,56,56],
    "Format/Datatype": "Thirty-two wide channel vectorized row major Int8 format"
  }],
  "Outputs": [
  {
    "Name": "/backbone/layer1/layer1.0/downsample/downsample.0/Conv_output_0",
    "Location": "Device",
    "Dimensions": [1,256,56,56],
    "Format/Datatype": "Thirty-two wide channel vectorized row major Int8 format"
  }],
  "ParameterType": "Convolution",
  "Kernel": [1,1],
  "PaddingMode": "kEXPLICIT_ROUND_DOWN",
  "PrePadding": [0,0],
  "PostPadding": [0,0],
  "Stride": [1,1],
  "Dilation": [1,1],
  "OutMaps": 256,
  "Groups": 1,
  "Weights": {"Type": "Int8", "Count": 16384},
  "Bias": {"Type": "Float", "Count": 256},
  "HasSparseWeights": 0,
  "HasDynamicFilter": 0,
  "HasDynamicBias": 0,
  "HasResidual": 0,
  "ConvXAsActInputIdx": -1,
  "BiasAsActInputIdx": -1,
  "ResAsActInputIdx": -1,
  "Activation": "NONE",
  "HasBias": 1,
  "HasReLU": 0,
  "TacticName": "sm80_xmma_fprop_implicit_gemm_interleaved_i8i8_i8i32_f32_nchw_vect_c_32kcrs_vect_c_32_nchw_vect_c_32_tilesize96x128x64_stage3_warpsize2x2x1_g1_tensor16x8x32_simple_t1r1s1",
  "TacticValue": "0x764ba04bb839d539",
  "StreamId": 0,
  "Metadata": "[ONNX Layer: /backbone/layer1/layer1.0/downsample/downsample.0/Conv]"
},{
  "Name": "/backbone/layer1/layer1.0/conv3/Conv + /backbone/layer1/layer1.0/Add + /backbone/layer1/layer1.0/relu_2/Relu",
  "LayerType": "CaskConvolution",
  "Inputs": [
  {
    "Name": "/backbone/layer1/layer1.0/relu_1/Relu_output_0",
    "Location": "Device",
    "Dimensions": [1,64,56,56],
    "Format/Datatype": "Thirty-two wide channel vectorized row major Int8 format"
  },
  {
    "Name": "/backbone/layer1/layer1.0/downsample/downsample.0/Conv_output_0",
    "Location": "Device",
    "Dimensions": [1,256,56,56],
    "Format/Datatype": "Thirty-two wide channel vectorized row major Int8 format"
  }],
  "Outputs": [
  {
    "Name": "/backbone/layer1/layer1.0/relu_2/Relu_output_0",
    "Location": "Device",
    "Dimensions": [1,256,56,56],
    "Format/Datatype": "Thirty-two wide channel vectorized row major Int8 format"
  }],
  "ParameterType": "Convolution",
  "Kernel": [1,1],
  "PaddingMode": "kEXPLICIT_ROUND_DOWN",
  "PrePadding": [0,0],
  "PostPadding": [0,0],
  "Stride": [1,1],
  "Dilation": [1,1],
  "OutMaps": 256,
  "Groups": 1,
  "Weights": {"Type": "Int8", "Count": 16384},
  "Bias": {"Type": "Float", "Count": 256},
  "HasSparseWeights": 0,
  "HasDynamicFilter": 0,
  "HasDynamicBias": 0,
  "HasResidual": 1,
  "ConvXAsActInputIdx": -1,
  "BiasAsActInputIdx": -1,
  "ResAsActInputIdx": -1,
  "Activation": "RELU",
  "HasBias": 1,
  "HasReLU": 1,
  "TacticName": "sm80_xmma_fprop_implicit_gemm_interleaved_i8i8_i8i32_f32_nchw_vect_c_32kcrs_vect_c_32_nchw_vect_c_32_tilesize96x128x64_stage3_warpsize2x2x1_g1_tensor16x8x32_simple_t1r1s1",
  "TacticValue": "0x764ba04bb839d539",
  "StreamId": 0,
  "Metadata": "[ONNX Layer: /backbone/layer1/layer1.0/conv3/Conv]\u001e[ONNX Layer: /backbone/layer1/layer1.0/Add]\u001e[ONNX Layer: /backbone/layer1/layer1.0/relu_2/Relu]"
},{
  "Name": "/backbone/layer1/layer1.1/conv1/Conv + /backbone/layer1/layer1.1/relu/Relu",
  "LayerType": "CaskConvolution",
  "Inputs": [
  {
    "Name": "/backbone/layer1/layer1.0/relu_2/Relu_output_0",
    "Location": "Device",
    "Dimensions": [1,256,56,56],
    "Format/Datatype": "Thirty-two wide channel vectorized row major Int8 format"
  }],
  "Outputs": [
  {
    "Name": "/backbone/layer1/layer1.1/relu/Relu_output_0",
    "Location": "Device",
    "Dimensions": [1,64,56,56],
    "Format/Datatype": "Thirty-two wide channel vectorized row major Int8 format"
  }],
  "ParameterType": "Convolution",
  "Kernel": [1,1],
  "PaddingMode": "kEXPLICIT_ROUND_DOWN",
  "PrePadding": [0,0],
  "PostPadding": [0,0],
  "Stride": [1,1],
  "Dilation": [1,1],
  "OutMaps": 64,
  "Groups": 1,
  "Weights": {"Type": "Int8", "Count": 16384},
  "Bias": {"Type": "Float", "Count": 64},
  "HasSparseWeights": 0,
  "HasDynamicFilter": 0,
  "HasDynamicBias": 0,
  "HasResidual": 0,
  "ConvXAsActInputIdx": -1,
  "BiasAsActInputIdx": -1,
  "ResAsActInputIdx": -1,
  "Activation": "RELU",
  "HasBias": 1,
  "HasReLU": 1,
  "TacticName": "sm80_xmma_fprop_implicit_gemm_interleaved_i8i8_i8i32_f32_nchw_vect_c_32kcrs_vect_c_32_nchw_vect_c_32_tilesize64x64x64_stage6_warpsize2x2x1_g1_tensor16x8x32_simple_t1r1s1",
  "TacticValue": "0xc22b2f91e37e472a",
  "StreamId": 0,
  "Metadata": "[ONNX Layer: /backbone/layer1/layer1.1/conv1/Conv]\u001e[ONNX Layer: /backbone/layer1/layer1.1/relu/Relu]"
},{
  "Name": "/backbone/layer1/layer1.1/conv2/Conv + /backbone/layer1/layer1.1/relu_1/Relu",
  "LayerType": "CaskConvolution",
  "Inputs": [
  {
    "Name": "/backbone/layer1/layer1.1/relu/Relu_output_0",
    "Location": "Device",
    "Dimensions": [1,64,56,56],
    "Format/Datatype": "Thirty-two wide channel vectorized row major Int8 format"
  }],
  "Outputs": [
  {
    "Name": "/backbone/layer1/layer1.1/relu_1/Relu_output_0",
    "Location": "Device",
    "Dimensions": [1,64,56,56],
    "Format/Datatype": "Thirty-two wide channel vectorized row major Int8 format"
  }],
  "ParameterType": "Convolution",
  "Kernel": [3,3],
  "PaddingMode": "kEXPLICIT_ROUND_DOWN",
  "PrePadding": [1,1],
  "PostPadding": [1,1],
  "Stride": [1,1],
  "Dilation": [1,1],
  "OutMaps": 64,
  "Groups": 1,
  "Weights": {"Type": "Int8", "Count": 36864},
  "Bias": {"Type": "Float", "Count": 64},
  "HasSparseWeights": 0,
  "HasDynamicFilter": 0,
  "HasDynamicBias": 0,
  "HasResidual": 0,
  "ConvXAsActInputIdx": -1,
  "BiasAsActInputIdx": -1,
  "ResAsActInputIdx": -1,
  "Activation": "RELU",
  "HasBias": 1,
  "HasReLU": 1,
  "TacticName": "sm80_xmma_fprop_implicit_gemm_interleaved_i8i8_i8i32_f32_nchw_vect_c_32kcrs_vect_c_32_nchw_vect_c_32_tilesize64x64x64_stage6_warpsize2x2x1_g1_tensor16x8x32_t1r3s3",
  "TacticValue": "0xbb88763c3b0e94d4",
  "StreamId": 0,
  "Metadata": "[ONNX Layer: /backbone/layer1/layer1.1/conv2/Conv]\u001e[ONNX Layer: /backbone/layer1/layer1.1/relu_1/Relu]"
},{
  "Name": "/backbone/layer1/layer1.1/conv3/Conv + /backbone/layer1/layer1.1/Add + /backbone/layer1/layer1.1/relu_2/Relu",
  "LayerType": "CaskConvolution",
  "Inputs": [
  {
    "Name": "/backbone/layer1/layer1.1/relu_1/Relu_output_0",
    "Location": "Device",
    "Dimensions": [1,64,56,56],
    "Format/Datatype": "Thirty-two wide channel vectorized row major Int8 format"
  },
  {
    "Name": "/backbone/layer1/layer1.0/relu_2/Relu_output_0",
    "Location": "Device",
    "Dimensions": [1,256,56,56],
    "Format/Datatype": "Thirty-two wide channel vectorized row major Int8 format"
  }],
  "Outputs": [
  {
    "Name": "/backbone/layer1/layer1.1/relu_2/Relu_output_0",
    "Location": "Device",
    "Dimensions": [1,256,56,56],
    "Format/Datatype": "Thirty-two wide channel vectorized row major Int8 format"
  }],
  "ParameterType": "Convolution",
  "Kernel": [1,1],
  "PaddingMode": "kEXPLICIT_ROUND_DOWN",
  "PrePadding": [0,0],
  "PostPadding": [0,0],
  "Stride": [1,1],
  "Dilation": [1,1],
  "OutMaps": 256,
  "Groups": 1,
  "Weights": {"Type": "Int8", "Count": 16384},
  "Bias": {"Type": "Float", "Count": 256},
  "HasSparseWeights": 0,
  "HasDynamicFilter": 0,
  "HasDynamicBias": 0,
  "HasResidual": 1,
  "ConvXAsActInputIdx": -1,
  "BiasAsActInputIdx": -1,
  "ResAsActInputIdx": -1,
  "Activation": "RELU",
  "HasBias": 1,
  "HasReLU": 1,
  "TacticName": "sm80_xmma_fprop_implicit_gemm_interleaved_i8i8_i8i32_f32_nchw_vect_c_32kcrs_vect_c_32_nchw_vect_c_32_tilesize96x128x64_stage3_warpsize2x2x1_g1_tensor16x8x32_simple_t1r1s1",
  "TacticValue": "0x764ba04bb839d539",
  "StreamId": 0,
  "Metadata": "[ONNX Layer: /backbone/layer1/layer1.1/conv3/Conv]\u001e[ONNX Layer: /backbone/layer1/layer1.1/Add]\u001e[ONNX Layer: /backbone/layer1/layer1.1/relu_2/Relu]"
},{
  "Name": "/backbone/layer1/layer1.2/conv1/Conv + /backbone/layer1/layer1.2/relu/Relu",
  "LayerType": "CaskConvolution",
  "Inputs": [
  {
    "Name": "/backbone/layer1/layer1.1/relu_2/Relu_output_0",
    "Location": "Device",
    "Dimensions": [1,256,56,56],
    "Format/Datatype": "Thirty-two wide channel vectorized row major Int8 format"
  }],
  "Outputs": [
  {
    "Name": "/backbone/layer1/layer1.2/relu/Relu_output_0",
    "Location": "Device",
    "Dimensions": [1,64,56,56],
    "Format/Datatype": "Thirty-two wide channel vectorized row major Int8 format"
  }],
  "ParameterType": "Convolution",
  "Kernel": [1,1],
  "PaddingMode": "kEXPLICIT_ROUND_DOWN",
  "PrePadding": [0,0],
  "PostPadding": [0,0],
  "Stride": [1,1],
  "Dilation": [1,1],
  "OutMaps": 64,
  "Groups": 1,
  "Weights": {"Type": "Int8", "Count": 16384},
  "Bias": {"Type": "Float", "Count": 64},
  "HasSparseWeights": 0,
  "HasDynamicFilter": 0,
  "HasDynamicBias": 0,
  "HasResidual": 0,
  "ConvXAsActInputIdx": -1,
  "BiasAsActInputIdx": -1,
  "ResAsActInputIdx": -1,
  "Activation": "RELU",
  "HasBias": 1,
  "HasReLU": 1,
  "TacticName": "sm80_xmma_fprop_implicit_gemm_interleaved_i8i8_i8i32_f32_nchw_vect_c_32kcrs_vect_c_32_nchw_vect_c_32_tilesize64x64x64_stage6_warpsize2x2x1_g1_tensor16x8x32_simple_t1r1s1",
  "TacticValue": "0xc22b2f91e37e472a",
  "StreamId": 0,
  "Metadata": "[ONNX Layer: /backbone/layer1/layer1.2/conv1/Conv]\u001e[ONNX Layer: /backbone/layer1/layer1.2/relu/Relu]"
},{
  "Name": "/backbone/layer1/layer1.2/conv2/Conv + /backbone/layer1/layer1.2/relu_1/Relu",
  "LayerType": "CaskConvolution",
  "Inputs": [
  {
    "Name": "/backbone/layer1/layer1.2/relu/Relu_output_0",
    "Location": "Device",
    "Dimensions": [1,64,56,56],
    "Format/Datatype": "Thirty-two wide channel vectorized row major Int8 format"
  }],
  "Outputs": [
  {
    "Name": "/backbone/layer1/layer1.2/relu_1/Relu_output_0",
    "Location": "Device",
    "Dimensions": [1,64,56,56],
    "Format/Datatype": "Thirty-two wide channel vectorized row major Int8 format"
  }],
  "ParameterType": "Convolution",
  "Kernel": [3,3],
  "PaddingMode": "kEXPLICIT_ROUND_DOWN",
  "PrePadding": [1,1],
  "PostPadding": [1,1],
  "Stride": [1,1],
  "Dilation": [1,1],
  "OutMaps": 64,
  "Groups": 1,
  "Weights": {"Type": "Int8", "Count": 36864},
  "Bias": {"Type": "Float", "Count": 64},
  "HasSparseWeights": 0,
  "HasDynamicFilter": 0,
  "HasDynamicBias": 0,
  "HasResidual": 0,
  "ConvXAsActInputIdx": -1,
  "BiasAsActInputIdx": -1,
  "ResAsActInputIdx": -1,
  "Activation": "RELU",
  "HasBias": 1,
  "HasReLU": 1,
  "TacticName": "sm80_xmma_fprop_implicit_gemm_interleaved_i8i8_i8i32_f32_nchw_vect_c_32kcrs_vect_c_32_nchw_vect_c_32_tilesize64x64x64_stage6_warpsize2x2x1_g1_tensor16x8x32_t1r3s3",
  "TacticValue": "0xbb88763c3b0e94d4",
  "StreamId": 0,
  "Metadata": "[ONNX Layer: /backbone/layer1/layer1.2/conv2/Conv]\u001e[ONNX Layer: /backbone/layer1/layer1.2/relu_1/Relu]"
},{
  "Name": "/backbone/layer1/layer1.2/conv3/Conv + /backbone/layer1/layer1.2/Add + /backbone/layer1/layer1.2/relu_2/Relu",
  "LayerType": "CaskConvolution",
  "Inputs": [
  {
    "Name": "/backbone/layer1/layer1.2/relu_1/Relu_output_0",
    "Location": "Device",
    "Dimensions": [1,64,56,56],
    "Format/Datatype": "Thirty-two wide channel vectorized row major Int8 format"
  },
  {
    "Name": "/backbone/layer1/layer1.1/relu_2/Relu_output_0",
    "Location": "Device",
    "Dimensions": [1,256,56,56],
    "Format/Datatype": "Thirty-two wide channel vectorized row major Int8 format"
  }],
  "Outputs": [
  {
    "Name": "/backbone/layer1/layer1.2/relu_2/Relu_output_0",
    "Location": "Device",
    "Dimensions": [1,256,56,56],
    "Format/Datatype": "Thirty-two wide channel vectorized row major Int8 format"
  }],
  "ParameterType": "Convolution",
  "Kernel": [1,1],
  "PaddingMode": "kEXPLICIT_ROUND_DOWN",
  "PrePadding": [0,0],
  "PostPadding": [0,0],
  "Stride": [1,1],
  "Dilation": [1,1],
  "OutMaps": 256,
  "Groups": 1,
  "Weights": {"Type": "Int8", "Count": 16384},
  "Bias": {"Type": "Float", "Count": 256},
  "HasSparseWeights": 0,
  "HasDynamicFilter": 0,
  "HasDynamicBias": 0,
  "HasResidual": 1,
  "ConvXAsActInputIdx": -1,
  "BiasAsActInputIdx": -1,
  "ResAsActInputIdx": -1,
  "Activation": "RELU",
  "HasBias": 1,
  "HasReLU": 1,
  "TacticName": "sm80_xmma_fprop_implicit_gemm_interleaved_i8i8_i8i32_f32_nchw_vect_c_32kcrs_vect_c_32_nchw_vect_c_32_tilesize96x128x64_stage3_warpsize2x2x1_g1_tensor16x8x32_simple_t1r1s1",
  "TacticValue": "0x764ba04bb839d539",
  "StreamId": 0,
  "Metadata": "[ONNX Layer: /backbone/layer1/layer1.2/conv3/Conv]\u001e[ONNX Layer: /backbone/layer1/layer1.2/Add]\u001e[ONNX Layer: /backbone/layer1/layer1.2/relu_2/Relu]"
},{
  "Name": "/backbone/layer2/layer2.0/conv1/Conv + /backbone/layer2/layer2.0/relu/Relu",
  "LayerType": "CaskConvolution",
  "Inputs": [
  {
    "Name": "/backbone/layer1/layer1.2/relu_2/Relu_output_0",
    "Location": "Device",
    "Dimensions": [1,256,56,56],
    "Format/Datatype": "Thirty-two wide channel vectorized row major Int8 format"
  }],
  "Outputs": [
  {
    "Name": "/backbone/layer2/layer2.0/relu/Relu_output_0",
    "Location": "Device",
    "Dimensions": [1,128,56,56],
    "Format/Datatype": "Thirty-two wide channel vectorized row major Int8 format"
  }],
  "ParameterType": "Convolution",
  "Kernel": [1,1],
  "PaddingMode": "kEXPLICIT_ROUND_DOWN",
  "PrePadding": [0,0],
  "PostPadding": [0,0],
  "Stride": [1,1],
  "Dilation": [1,1],
  "OutMaps": 128,
  "Groups": 1,
  "Weights": {"Type": "Int8", "Count": 32768},
  "Bias": {"Type": "Float", "Count": 128},
  "HasSparseWeights": 0,
  "HasDynamicFilter": 0,
  "HasDynamicBias": 0,
  "HasResidual": 0,
  "ConvXAsActInputIdx": -1,
  "BiasAsActInputIdx": -1,
  "ResAsActInputIdx": -1,
  "Activation": "RELU",
  "HasBias": 1,
  "HasReLU": 1,
  "TacticName": "sm80_xmma_fprop_implicit_gemm_interleaved_i8i8_i8i32_f32_nchw_vect_c_32kcrs_vect_c_32_nchw_vect_c_32_tilesize128x64x64_stage6_warpsize2x2x1_g1_tensor16x8x32_simple_t1r1s1",
  "TacticValue": "0x2640501019a61dc2",
  "StreamId": 0,
  "Metadata": "[ONNX Layer: /backbone/layer2/layer2.0/conv1/Conv]\u001e[ONNX Layer: /backbone/layer2/layer2.0/relu/Relu]"
},{
  "Name": "/backbone/layer2/layer2.0/conv2/Conv + /backbone/layer2/layer2.0/relu_1/Relu",
  "LayerType": "CaskConvolution",
  "Inputs": [
  {
    "Name": "/backbone/layer2/layer2.0/relu/Relu_output_0",
    "Location": "Device",
    "Dimensions": [1,128,56,56],
    "Format/Datatype": "Thirty-two wide channel vectorized row major Int8 format"
  }],
  "Outputs": [
  {
    "Name": "/backbone/layer2/layer2.0/relu_1/Relu_output_0",
    "Location": "Device",
    "Dimensions": [1,128,28,28],
    "Format/Datatype": "Thirty-two wide channel vectorized row major Int8 format"
  }],
  "ParameterType": "Convolution",
  "Kernel": [3,3],
  "PaddingMode": "kEXPLICIT_ROUND_DOWN",
  "PrePadding": [1,1],
  "PostPadding": [1,1],
  "Stride": [2,2],
  "Dilation": [1,1],
  "OutMaps": 128,
  "Groups": 1,
  "Weights": {"Type": "Int8", "Count": 147456},
  "Bias": {"Type": "Float", "Count": 128},
  "HasSparseWeights": 0,
  "HasDynamicFilter": 0,
  "HasDynamicBias": 0,
  "HasResidual": 0,
  "ConvXAsActInputIdx": -1,
  "BiasAsActInputIdx": -1,
  "ResAsActInputIdx": -1,
  "Activation": "RELU",
  "HasBias": 1,
  "HasReLU": 1,
  "TacticName": "sm80_xmma_fprop_implicit_gemm_interleaved_i8i8_i8i32_f32_nchw_vect_c_32kcrs_vect_c_32_nchw_vect_c_32_tilesize32x64x64_stage6_warpsize2x2x1_g1_tensor16x8x32_t1r3s3",
  "TacticValue": "0xd3f592fae61c7986",
  "StreamId": 0,
  "Metadata": "[ONNX Layer: /backbone/layer2/layer2.0/conv2/Conv]\u001e[ONNX Layer: /backbone/layer2/layer2.0/relu_1/Relu]"
},{
  "Name": "/backbone/layer2/layer2.0/downsample/downsample.0/Conv",
  "LayerType": "CaskConvolution",
  "Inputs": [
  {
    "Name": "/backbone/layer1/layer1.2/relu_2/Relu_output_0",
    "Location": "Device",
    "Dimensions": [1,256,56,56],
    "Format/Datatype": "Thirty-two wide channel vectorized row major Int8 format"
  }],
  "Outputs": [
  {
    "Name": "/backbone/layer2/layer2.0/downsample/downsample.0/Conv_output_0",
    "Location": "Device",
    "Dimensions": [1,512,28,28],
    "Format/Datatype": "Thirty-two wide channel vectorized row major Int8 format"
  }],
  "ParameterType": "Convolution",
  "Kernel": [1,1],
  "PaddingMode": "kEXPLICIT_ROUND_DOWN",
  "PrePadding": [0,0],
  "PostPadding": [0,0],
  "Stride": [2,2],
  "Dilation": [1,1],
  "OutMaps": 512,
  "Groups": 1,
  "Weights": {"Type": "Int8", "Count": 131072},
  "Bias": {"Type": "Float", "Count": 512},
  "HasSparseWeights": 0,
  "HasDynamicFilter": 0,
  "HasDynamicBias": 0,
  "HasResidual": 0,
  "ConvXAsActInputIdx": -1,
  "BiasAsActInputIdx": -1,
  "ResAsActInputIdx": -1,
  "Activation": "NONE",
  "HasBias": 1,
  "HasReLU": 0,
  "TacticName": "sm80_xmma_fprop_implicit_gemm_interleaved_i8i8_i8i32_f32_nchw_vect_c_32kcrs_vect_c_32_nchw_vect_c_32_tilesize64x128x64_stage6_warpsize2x2x1_g1_tensor16x8x32",
  "TacticValue": "0x3818ca0093333b50",
  "StreamId": 0,
  "Metadata": "[ONNX Layer: /backbone/layer2/layer2.0/downsample/downsample.0/Conv]"
},{
  "Name": "/backbone/layer2/layer2.0/conv3/Conv + /backbone/layer2/layer2.0/Add + /backbone/layer2/layer2.0/relu_2/Relu",
  "LayerType": "CaskConvolution",
  "Inputs": [
  {
    "Name": "/backbone/layer2/layer2.0/relu_1/Relu_output_0",
    "Location": "Device",
    "Dimensions": [1,128,28,28],
    "Format/Datatype": "Thirty-two wide channel vectorized row major Int8 format"
  },
  {
    "Name": "/backbone/layer2/layer2.0/downsample/downsample.0/Conv_output_0",
    "Location": "Device",
    "Dimensions": [1,512,28,28],
    "Format/Datatype": "Thirty-two wide channel vectorized row major Int8 format"
  }],
  "Outputs": [
  {
    "Name": "/backbone/layer2/layer2.0/relu_2/Relu_output_0",
    "Location": "Device",
    "Dimensions": [1,512,28,28],
    "Format/Datatype": "Thirty-two wide channel vectorized row major Int8 format"
  }],
  "ParameterType": "Convolution",
  "Kernel": [1,1],
  "PaddingMode": "kEXPLICIT_ROUND_DOWN",
  "PrePadding": [0,0],
  "PostPadding": [0,0],
  "Stride": [1,1],
  "Dilation": [1,1],
  "OutMaps": 512,
  "Groups": 1,
  "Weights": {"Type": "Int8", "Count": 65536},
  "Bias": {"Type": "Float", "Count": 512},
  "HasSparseWeights": 0,
  "HasDynamicFilter": 0,
  "HasDynamicBias": 0,
  "HasResidual": 1,
  "ConvXAsActInputIdx": -1,
  "BiasAsActInputIdx": -1,
  "ResAsActInputIdx": -1,
  "Activation": "RELU",
  "HasBias": 1,
  "HasReLU": 1,
  "TacticName": "sm80_xmma_fprop_implicit_gemm_interleaved_i8i8_i8i32_f32_nchw_vect_c_32kcrs_vect_c_32_nchw_vect_c_32_tilesize64x128x64_stage6_warpsize2x2x1_g1_tensor16x8x32_simple_t1r1s1",
  "TacticValue": "0x3ffcb62b1c6bb94f",
  "StreamId": 0,
  "Metadata": "[ONNX Layer: /backbone/layer2/layer2.0/conv3/Conv]\u001e[ONNX Layer: /backbone/layer2/layer2.0/Add]\u001e[ONNX Layer: /backbone/layer2/layer2.0/relu_2/Relu]"
},{
  "Name": "/backbone/layer2/layer2.1/conv1/Conv + /backbone/layer2/layer2.1/relu/Relu",
  "LayerType": "CaskConvolution",
  "Inputs": [
  {
    "Name": "/backbone/layer2/layer2.0/relu_2/Relu_output_0",
    "Location": "Device",
    "Dimensions": [1,512,28,28],
    "Format/Datatype": "Thirty-two wide channel vectorized row major Int8 format"
  }],
  "Outputs": [
  {
    "Name": "/backbone/layer2/layer2.1/relu/Relu_output_0",
    "Location": "Device",
    "Dimensions": [1,128,28,28],
    "Format/Datatype": "Thirty-two wide channel vectorized row major Int8 format"
  }],
  "ParameterType": "Convolution",
  "Kernel": [1,1],
  "PaddingMode": "kEXPLICIT_ROUND_DOWN",
  "PrePadding": [0,0],
  "PostPadding": [0,0],
  "Stride": [1,1],
  "Dilation": [1,1],
  "OutMaps": 128,
  "Groups": 1,
  "Weights": {"Type": "Int8", "Count": 65536},
  "Bias": {"Type": "Float", "Count": 128},
  "HasSparseWeights": 0,
  "HasDynamicFilter": 0,
  "HasDynamicBias": 0,
  "HasResidual": 0,
  "ConvXAsActInputIdx": -1,
  "BiasAsActInputIdx": -1,
  "ResAsActInputIdx": -1,
  "Activation": "RELU",
  "HasBias": 1,
  "HasReLU": 1,
  "TacticName": "sm80_xmma_fprop_implicit_gemm_interleaved_i8i8_i8i32_f32_nchw_vect_c_32kcrs_vect_c_32_nchw_vect_c_32_tilesize64x32x64_stage6_warpsize2x1x1_g1_tensor16x8x32_simple_t1r1s1",
  "TacticValue": "0xcae7b5888d47fe1f",
  "StreamId": 0,
  "Metadata": "[ONNX Layer: /backbone/layer2/layer2.1/conv1/Conv]\u001e[ONNX Layer: /backbone/layer2/layer2.1/relu/Relu]"
},{
  "Name": "/backbone/layer2/layer2.1/conv2/Conv + /backbone/layer2/layer2.1/relu_1/Relu",
  "LayerType": "CaskConvolution",
  "Inputs": [
  {
    "Name": "/backbone/layer2/layer2.1/relu/Relu_output_0",
    "Location": "Device",
    "Dimensions": [1,128,28,28],
    "Format/Datatype": "Thirty-two wide channel vectorized row major Int8 format"
  }],
  "Outputs": [
  {
    "Name": "/backbone/layer2/layer2.1/relu_1/Relu_output_0",
    "Location": "Device",
    "Dimensions": [1,128,28,28],
    "Format/Datatype": "Thirty-two wide channel vectorized row major Int8 format"
  }],
  "ParameterType": "Convolution",
  "Kernel": [3,3],
  "PaddingMode": "kEXPLICIT_ROUND_DOWN",
  "PrePadding": [1,1],
  "PostPadding": [1,1],
  "Stride": [1,1],
  "Dilation": [1,1],
  "OutMaps": 128,
  "Groups": 1,
  "Weights": {"Type": "Int8", "Count": 147456},
  "Bias": {"Type": "Float", "Count": 128},
  "HasSparseWeights": 0,
  "HasDynamicFilter": 0,
  "HasDynamicBias": 0,
  "HasResidual": 0,
  "ConvXAsActInputIdx": -1,
  "BiasAsActInputIdx": -1,
  "ResAsActInputIdx": -1,
  "Activation": "RELU",
  "HasBias": 1,
  "HasReLU": 1,
  "TacticName": "sm80_xmma_fprop_implicit_gemm_interleaved_i8i8_i8i32_f32_nchw_vect_c_32kcrs_vect_c_32_nchw_vect_c_32_tilesize32x64x64_stage6_warpsize2x2x1_g1_tensor16x8x32_t1r3s3",
  "TacticValue": "0xd3f592fae61c7986",
  "StreamId": 0,
  "Metadata": "[ONNX Layer: /backbone/layer2/layer2.1/conv2/Conv]\u001e[ONNX Layer: /backbone/layer2/layer2.1/relu_1/Relu]"
},{
  "Name": "/backbone/layer2/layer2.1/conv3/Conv + /backbone/layer2/layer2.1/Add + /backbone/layer2/layer2.1/relu_2/Relu",
  "LayerType": "CaskConvolution",
  "Inputs": [
  {
    "Name": "/backbone/layer2/layer2.1/relu_1/Relu_output_0",
    "Location": "Device",
    "Dimensions": [1,128,28,28],
    "Format/Datatype": "Thirty-two wide channel vectorized row major Int8 format"
  },
  {
    "Name": "/backbone/layer2/layer2.0/relu_2/Relu_output_0",
    "Location": "Device",
    "Dimensions": [1,512,28,28],
    "Format/Datatype": "Thirty-two wide channel vectorized row major Int8 format"
  }],
  "Outputs": [
  {
    "Name": "/backbone/layer2/layer2.1/relu_2/Relu_output_0",
    "Location": "Device",
    "Dimensions": [1,512,28,28],
    "Format/Datatype": "Thirty-two wide channel vectorized row major Int8 format"
  }],
  "ParameterType": "Convolution",
  "Kernel": [1,1],
  "PaddingMode": "kEXPLICIT_ROUND_DOWN",
  "PrePadding": [0,0],
  "PostPadding": [0,0],
  "Stride": [1,1],
  "Dilation": [1,1],
  "OutMaps": 512,
  "Groups": 1,
  "Weights": {"Type": "Int8", "Count": 65536},
  "Bias": {"Type": "Float", "Count": 512},
  "HasSparseWeights": 0,
  "HasDynamicFilter": 0,
  "HasDynamicBias": 0,
  "HasResidual": 1,
  "ConvXAsActInputIdx": -1,
  "BiasAsActInputIdx": -1,
  "ResAsActInputIdx": -1,
  "Activation": "RELU",
  "HasBias": 1,
  "HasReLU": 1,
  "TacticName": "sm80_xmma_fprop_implicit_gemm_interleaved_i8i8_i8i32_f32_nchw_vect_c_32kcrs_vect_c_32_nchw_vect_c_32_tilesize64x128x64_stage6_warpsize2x2x1_g1_tensor16x8x32_simple_t1r1s1",
  "TacticValue": "0x3ffcb62b1c6bb94f",
  "StreamId": 0,
  "Metadata": "[ONNX Layer: /backbone/layer2/layer2.1/conv3/Conv]\u001e[ONNX Layer: /backbone/layer2/layer2.1/Add]\u001e[ONNX Layer: /backbone/layer2/layer2.1/relu_2/Relu]"
},{
  "Name": "/backbone/layer2/layer2.2/conv1/Conv + /backbone/layer2/layer2.2/relu/Relu",
  "LayerType": "CaskConvolution",
  "Inputs": [
  {
    "Name": "/backbone/layer2/layer2.1/relu_2/Relu_output_0",
    "Location": "Device",
    "Dimensions": [1,512,28,28],
    "Format/Datatype": "Thirty-two wide channel vectorized row major Int8 format"
  }],
  "Outputs": [
  {
    "Name": "/backbone/layer2/layer2.2/relu/Relu_output_0",
    "Location": "Device",
    "Dimensions": [1,128,28,28],
    "Format/Datatype": "Thirty-two wide channel vectorized row major Int8 format"
  }],
  "ParameterType": "Convolution",
  "Kernel": [1,1],
  "PaddingMode": "kEXPLICIT_ROUND_DOWN",
  "PrePadding": [0,0],
  "PostPadding": [0,0],
  "Stride": [1,1],
  "Dilation": [1,1],
  "OutMaps": 128,
  "Groups": 1,
  "Weights": {"Type": "Int8", "Count": 65536},
  "Bias": {"Type": "Float", "Count": 128},
  "HasSparseWeights": 0,
  "HasDynamicFilter": 0,
  "HasDynamicBias": 0,
  "HasResidual": 0,
  "ConvXAsActInputIdx": -1,
  "BiasAsActInputIdx": -1,
  "ResAsActInputIdx": -1,
  "Activation": "RELU",
  "HasBias": 1,
  "HasReLU": 1,
  "TacticName": "sm80_xmma_fprop_implicit_gemm_interleaved_i8i8_i8i32_f32_nchw_vect_c_32kcrs_vect_c_32_nchw_vect_c_32_tilesize64x32x64_stage6_warpsize2x1x1_g1_tensor16x8x32_simple_t1r1s1",
  "TacticValue": "0xcae7b5888d47fe1f",
  "StreamId": 0,
  "Metadata": "[ONNX Layer: /backbone/layer2/layer2.2/conv1/Conv]\u001e[ONNX Layer: /backbone/layer2/layer2.2/relu/Relu]"
},{
  "Name": "/backbone/layer2/layer2.2/conv2/Conv + /backbone/layer2/layer2.2/relu_1/Relu",
  "LayerType": "CaskConvolution",
  "Inputs": [
  {
    "Name": "/backbone/layer2/layer2.2/relu/Relu_output_0",
    "Location": "Device",
    "Dimensions": [1,128,28,28],
    "Format/Datatype": "Thirty-two wide channel vectorized row major Int8 format"
  }],
  "Outputs": [
  {
    "Name": "/backbone/layer2/layer2.2/relu_1/Relu_output_0",
    "Location": "Device",
    "Dimensions": [1,128,28,28],
    "Format/Datatype": "Thirty-two wide channel vectorized row major Int8 format"
  }],
  "ParameterType": "Convolution",
  "Kernel": [3,3],
  "PaddingMode": "kEXPLICIT_ROUND_DOWN",
  "PrePadding": [1,1],
  "PostPadding": [1,1],
  "Stride": [1,1],
  "Dilation": [1,1],
  "OutMaps": 128,
  "Groups": 1,
  "Weights": {"Type": "Int8", "Count": 147456},
  "Bias": {"Type": "Float", "Count": 128},
  "HasSparseWeights": 0,
  "HasDynamicFilter": 0,
  "HasDynamicBias": 0,
  "HasResidual": 0,
  "ConvXAsActInputIdx": -1,
  "BiasAsActInputIdx": -1,
  "ResAsActInputIdx": -1,
  "Activation": "RELU",
  "HasBias": 1,
  "HasReLU": 1,
  "TacticName": "sm80_xmma_fprop_implicit_gemm_interleaved_i8i8_i8i32_f32_nchw_vect_c_32kcrs_vect_c_32_nchw_vect_c_32_tilesize32x64x64_stage6_warpsize2x2x1_g1_tensor16x8x32_t1r3s3",
  "TacticValue": "0xd3f592fae61c7986",
  "StreamId": 0,
  "Metadata": "[ONNX Layer: /backbone/layer2/layer2.2/conv2/Conv]\u001e[ONNX Layer: /backbone/layer2/layer2.2/relu_1/Relu]"
},{
  "Name": "/backbone/layer2/layer2.2/conv3/Conv + /backbone/layer2/layer2.2/Add + /backbone/layer2/layer2.2/relu_2/Relu",
  "LayerType": "CaskConvolution",
  "Inputs": [
  {
    "Name": "/backbone/layer2/layer2.2/relu_1/Relu_output_0",
    "Location": "Device",
    "Dimensions": [1,128,28,28],
    "Format/Datatype": "Thirty-two wide channel vectorized row major Int8 format"
  },
  {
    "Name": "/backbone/layer2/layer2.1/relu_2/Relu_output_0",
    "Location": "Device",
    "Dimensions": [1,512,28,28],
    "Format/Datatype": "Thirty-two wide channel vectorized row major Int8 format"
  }],
  "Outputs": [
  {
    "Name": "/backbone/layer2/layer2.2/relu_2/Relu_output_0",
    "Location": "Device",
    "Dimensions": [1,512,28,28],
    "Format/Datatype": "Thirty-two wide channel vectorized row major Int8 format"
  }],
  "ParameterType": "Convolution",
  "Kernel": [1,1],
  "PaddingMode": "kEXPLICIT_ROUND_DOWN",
  "PrePadding": [0,0],
  "PostPadding": [0,0],
  "Stride": [1,1],
  "Dilation": [1,1],
  "OutMaps": 512,
  "Groups": 1,
  "Weights": {"Type": "Int8", "Count": 65536},
  "Bias": {"Type": "Float", "Count": 512},
  "HasSparseWeights": 0,
  "HasDynamicFilter": 0,
  "HasDynamicBias": 0,
  "HasResidual": 1,
  "ConvXAsActInputIdx": -1,
  "BiasAsActInputIdx": -1,
  "ResAsActInputIdx": -1,
  "Activation": "RELU",
  "HasBias": 1,
  "HasReLU": 1,
  "TacticName": "sm80_xmma_fprop_implicit_gemm_interleaved_i8i8_i8i32_f32_nchw_vect_c_32kcrs_vect_c_32_nchw_vect_c_32_tilesize64x128x64_stage6_warpsize2x2x1_g1_tensor16x8x32_simple_t1r1s1",
  "TacticValue": "0x3ffcb62b1c6bb94f",
  "StreamId": 0,
  "Metadata": "[ONNX Layer: /backbone/layer2/layer2.2/conv3/Conv]\u001e[ONNX Layer: /backbone/layer2/layer2.2/Add]\u001e[ONNX Layer: /backbone/layer2/layer2.2/relu_2/Relu]"
},{
  "Name": "/backbone/layer2/layer2.3/conv1/Conv + /backbone/layer2/layer2.3/relu/Relu",
  "LayerType": "CaskConvolution",
  "Inputs": [
  {
    "Name": "/backbone/layer2/layer2.2/relu_2/Relu_output_0",
    "Location": "Device",
    "Dimensions": [1,512,28,28],
    "Format/Datatype": "Thirty-two wide channel vectorized row major Int8 format"
  }],
  "Outputs": [
  {
    "Name": "/backbone/layer2/layer2.3/relu/Relu_output_0",
    "Location": "Device",
    "Dimensions": [1,128,28,28],
    "Format/Datatype": "Thirty-two wide channel vectorized row major Int8 format"
  }],
  "ParameterType": "Convolution",
  "Kernel": [1,1],
  "PaddingMode": "kEXPLICIT_ROUND_DOWN",
  "PrePadding": [0,0],
  "PostPadding": [0,0],
  "Stride": [1,1],
  "Dilation": [1,1],
  "OutMaps": 128,
  "Groups": 1,
  "Weights": {"Type": "Int8", "Count": 65536},
  "Bias": {"Type": "Float", "Count": 128},
  "HasSparseWeights": 0,
  "HasDynamicFilter": 0,
  "HasDynamicBias": 0,
  "HasResidual": 0,
  "ConvXAsActInputIdx": -1,
  "BiasAsActInputIdx": -1,
  "ResAsActInputIdx": -1,
  "Activation": "RELU",
  "HasBias": 1,
  "HasReLU": 1,
  "TacticName": "sm80_xmma_fprop_implicit_gemm_interleaved_i8i8_i8i32_f32_nchw_vect_c_32kcrs_vect_c_32_nchw_vect_c_32_tilesize64x32x64_stage6_warpsize2x1x1_g1_tensor16x8x32_simple_t1r1s1",
  "TacticValue": "0xcae7b5888d47fe1f",
  "StreamId": 0,
  "Metadata": "[ONNX Layer: /backbone/layer2/layer2.3/conv1/Conv]\u001e[ONNX Layer: /backbone/layer2/layer2.3/relu/Relu]"
},{
  "Name": "/backbone/layer2/layer2.3/conv2/Conv + /backbone/layer2/layer2.3/relu_1/Relu",
  "LayerType": "CaskConvolution",
  "Inputs": [
  {
    "Name": "/backbone/layer2/layer2.3/relu/Relu_output_0",
    "Location": "Device",
    "Dimensions": [1,128,28,28],
    "Format/Datatype": "Thirty-two wide channel vectorized row major Int8 format"
  }],
  "Outputs": [
  {
    "Name": "/backbone/layer2/layer2.3/relu_1/Relu_output_0",
    "Location": "Device",
    "Dimensions": [1,128,28,28],
    "Format/Datatype": "Thirty-two wide channel vectorized row major Int8 format"
  }],
  "ParameterType": "Convolution",
  "Kernel": [3,3],
  "PaddingMode": "kEXPLICIT_ROUND_DOWN",
  "PrePadding": [1,1],
  "PostPadding": [1,1],
  "Stride": [1,1],
  "Dilation": [1,1],
  "OutMaps": 128,
  "Groups": 1,
  "Weights": {"Type": "Int8", "Count": 147456},
  "Bias": {"Type": "Float", "Count": 128},
  "HasSparseWeights": 0,
  "HasDynamicFilter": 0,
  "HasDynamicBias": 0,
  "HasResidual": 0,
  "ConvXAsActInputIdx": -1,
  "BiasAsActInputIdx": -1,
  "ResAsActInputIdx": -1,
  "Activation": "RELU",
  "HasBias": 1,
  "HasReLU": 1,
  "TacticName": "sm80_xmma_fprop_implicit_gemm_interleaved_i8i8_i8i32_f32_nchw_vect_c_32kcrs_vect_c_32_nchw_vect_c_32_tilesize32x64x64_stage6_warpsize2x2x1_g1_tensor16x8x32_t1r3s3",
  "TacticValue": "0xd3f592fae61c7986",
  "StreamId": 0,
  "Metadata": "[ONNX Layer: /backbone/layer2/layer2.3/conv2/Conv]\u001e[ONNX Layer: /backbone/layer2/layer2.3/relu_1/Relu]"
},{
  "Name": "/backbone/layer2/layer2.3/conv3/Conv + /backbone/layer2/layer2.3/Add + /backbone/layer2/layer2.3/relu_2/Relu",
  "LayerType": "CaskConvolution",
  "Inputs": [
  {
    "Name": "/backbone/layer2/layer2.3/relu_1/Relu_output_0",
    "Location": "Device",
    "Dimensions": [1,128,28,28],
    "Format/Datatype": "Thirty-two wide channel vectorized row major Int8 format"
  },
  {
    "Name": "/backbone/layer2/layer2.2/relu_2/Relu_output_0",
    "Location": "Device",
    "Dimensions": [1,512,28,28],
    "Format/Datatype": "Thirty-two wide channel vectorized row major Int8 format"
  }],
  "Outputs": [
  {
    "Name": "/backbone/layer2/layer2.3/relu_2/Relu_output_0",
    "Location": "Device",
    "Dimensions": [1,512,28,28],
    "Format/Datatype": "Thirty-two wide channel vectorized row major Int8 format"
  }],
  "ParameterType": "Convolution",
  "Kernel": [1,1],
  "PaddingMode": "kEXPLICIT_ROUND_DOWN",
  "PrePadding": [0,0],
  "PostPadding": [0,0],
  "Stride": [1,1],
  "Dilation": [1,1],
  "OutMaps": 512,
  "Groups": 1,
  "Weights": {"Type": "Int8", "Count": 65536},
  "Bias": {"Type": "Float", "Count": 512},
  "HasSparseWeights": 0,
  "HasDynamicFilter": 0,
  "HasDynamicBias": 0,
  "HasResidual": 1,
  "ConvXAsActInputIdx": -1,
  "BiasAsActInputIdx": -1,
  "ResAsActInputIdx": -1,
  "Activation": "RELU",
  "HasBias": 1,
  "HasReLU": 1,
  "TacticName": "sm80_xmma_fprop_implicit_gemm_interleaved_i8i8_i8i32_f32_nchw_vect_c_32kcrs_vect_c_32_nchw_vect_c_32_tilesize64x128x64_stage6_warpsize2x2x1_g1_tensor16x8x32_simple_t1r1s1",
  "TacticValue": "0x3ffcb62b1c6bb94f",
  "StreamId": 0,
  "Metadata": "[ONNX Layer: /backbone/layer2/layer2.3/conv3/Conv]\u001e[ONNX Layer: /backbone/layer2/layer2.3/Add]\u001e[ONNX Layer: /backbone/layer2/layer2.3/relu_2/Relu]"
},{
  "Name": "/backbone/layer3/layer3.0/conv1/Conv + /backbone/layer3/layer3.0/relu/Relu",
  "LayerType": "CaskConvolution",
  "Inputs": [
  {
    "Name": "/backbone/layer2/layer2.3/relu_2/Relu_output_0",
    "Location": "Device",
    "Dimensions": [1,512,28,28],
    "Format/Datatype": "Thirty-two wide channel vectorized row major Int8 format"
  }],
  "Outputs": [
  {
    "Name": "/backbone/layer3/layer3.0/relu/Relu_output_0",
    "Location": "Device",
    "Dimensions": [1,256,28,28],
    "Format/Datatype": "Thirty-two wide channel vectorized row major Int8 format"
  }],
  "ParameterType": "Convolution",
  "Kernel": [1,1],
  "PaddingMode": "kEXPLICIT_ROUND_DOWN",
  "PrePadding": [0,0],
  "PostPadding": [0,0],
  "Stride": [1,1],
  "Dilation": [1,1],
  "OutMaps": 256,
  "Groups": 1,
  "Weights": {"Type": "Int8", "Count": 131072},
  "Bias": {"Type": "Float", "Count": 256},
  "HasSparseWeights": 0,
  "HasDynamicFilter": 0,
  "HasDynamicBias": 0,
  "HasResidual": 0,
  "ConvXAsActInputIdx": -1,
  "BiasAsActInputIdx": -1,
  "ResAsActInputIdx": -1,
  "Activation": "RELU",
  "HasBias": 1,
  "HasReLU": 1,
  "TacticName": "sm80_xmma_fprop_implicit_gemm_interleaved_i8i8_i8i32_f32_nchw_vect_c_32kcrs_vect_c_32_nchw_vect_c_32_tilesize64x64x64_stage6_warpsize2x2x1_g1_tensor16x8x32_simple_t1r1s1",
  "TacticValue": "0xc22b2f91e37e472a",
  "StreamId": 0,
  "Metadata": "[ONNX Layer: /backbone/layer3/layer3.0/conv1/Conv]\u001e[ONNX Layer: /backbone/layer3/layer3.0/relu/Relu]"
},{
  "Name": "/backbone/layer3/layer3.0/conv2/Conv + /backbone/layer3/layer3.0/relu_1/Relu",
  "LayerType": "CaskConvolution",
  "Inputs": [
  {
    "Name": "/backbone/layer3/layer3.0/relu/Relu_output_0",
    "Location": "Device",
    "Dimensions": [1,256,28,28],
    "Format/Datatype": "Thirty-two wide channel vectorized row major Int8 format"
  }],
  "Outputs": [
  {
    "Name": "/backbone/layer3/layer3.0/relu_1/Relu_output_0",
    "Location": "Device",
    "Dimensions": [1,256,14,14],
    "Format/Datatype": "Thirty-two wide channel vectorized row major Int8 format"
  }],
  "ParameterType": "Convolution",
  "Kernel": [3,3],
  "PaddingMode": "kEXPLICIT_ROUND_DOWN",
  "PrePadding": [1,1],
  "PostPadding": [1,1],
  "Stride": [2,2],
  "Dilation": [1,1],
  "OutMaps": 256,
  "Groups": 1,
  "Weights": {"Type": "Int8", "Count": 589824},
  "Bias": {"Type": "Float", "Count": 256},
  "HasSparseWeights": 0,
  "HasDynamicFilter": 0,
  "HasDynamicBias": 0,
  "HasResidual": 0,
  "ConvXAsActInputIdx": -1,
  "BiasAsActInputIdx": -1,
  "ResAsActInputIdx": -1,
  "Activation": "RELU",
  "HasBias": 1,
  "HasReLU": 1,
  "TacticName": "sm80_xmma_fprop_implicit_gemm_interleaved_i8i8_i8i32_f32_nchw_vect_c_32kcrs_vect_c_32_nchw_vect_c_32_tilesize32x32x64_stage6_warpsize2x1x1_g1_tensor16x8x32_t1r3s3",
  "TacticValue": "0x4749124f62d8bd23",
  "StreamId": 0,
  "Metadata": "[ONNX Layer: /backbone/layer3/layer3.0/conv2/Conv]\u001e[ONNX Layer: /backbone/layer3/layer3.0/relu_1/Relu]"
},{
  "Name": "/backbone/layer3/layer3.0/downsample/downsample.0/Conv",
  "LayerType": "CaskConvolution",
  "Inputs": [
  {
    "Name": "/backbone/layer2/layer2.3/relu_2/Relu_output_0",
    "Location": "Device",
    "Dimensions": [1,512,28,28],
    "Format/Datatype": "Thirty-two wide channel vectorized row major Int8 format"
  }],
  "Outputs": [
  {
    "Name": "/backbone/layer3/layer3.0/downsample/downsample.0/Conv_output_0",
    "Location": "Device",
    "Dimensions": [1,1024,14,14],
    "Format/Datatype": "Thirty-two wide channel vectorized row major Int8 format"
  }],
  "ParameterType": "Convolution",
  "Kernel": [1,1],
  "PaddingMode": "kEXPLICIT_ROUND_DOWN",
  "PrePadding": [0,0],
  "PostPadding": [0,0],
  "Stride": [2,2],
  "Dilation": [1,1],
  "OutMaps": 1024,
  "Groups": 1,
  "Weights": {"Type": "Int8", "Count": 524288},
  "Bias": {"Type": "Float", "Count": 1024},
  "HasSparseWeights": 0,
  "HasDynamicFilter": 0,
  "HasDynamicBias": 0,
  "HasResidual": 0,
  "ConvXAsActInputIdx": -1,
  "BiasAsActInputIdx": -1,
  "ResAsActInputIdx": -1,
  "Activation": "NONE",
  "HasBias": 1,
  "HasReLU": 0,
  "TacticName": "sm80_xmma_fprop_implicit_gemm_interleaved_i8i8_i8i32_f32_nchw_vect_c_32kcrs_vect_c_32_nchw_vect_c_32_tilesize64x64x64_stage6_warpsize2x2x1_g1_tensor16x8x32_t1r1s1",
  "TacticValue": "0x311b82feb19aef19",
  "StreamId": 0,
  "Metadata": "[ONNX Layer: /backbone/layer3/layer3.0/downsample/downsample.0/Conv]"
},{
  "Name": "/backbone/layer3/layer3.0/conv3/Conv + /backbone/layer3/layer3.0/Add + /backbone/layer3/layer3.0/relu_2/Relu",
  "LayerType": "CaskConvolution",
  "Inputs": [
  {
    "Name": "/backbone/layer3/layer3.0/relu_1/Relu_output_0",
    "Location": "Device",
    "Dimensions": [1,256,14,14],
    "Format/Datatype": "Thirty-two wide channel vectorized row major Int8 format"
  },
  {
    "Name": "/backbone/layer3/layer3.0/downsample/downsample.0/Conv_output_0",
    "Location": "Device",
    "Dimensions": [1,1024,14,14],
    "Format/Datatype": "Thirty-two wide channel vectorized row major Int8 format"
  }],
  "Outputs": [
  {
    "Name": "/backbone/layer3/layer3.0/relu_2/Relu_output_0",
    "Location": "Device",
    "Dimensions": [1,1024,14,14],
    "Format/Datatype": "Thirty-two wide channel vectorized row major Int8 format"
  }],
  "ParameterType": "Convolution",
  "Kernel": [1,1],
  "PaddingMode": "kEXPLICIT_ROUND_DOWN",
  "PrePadding": [0,0],
  "PostPadding": [0,0],
  "Stride": [1,1],
  "Dilation": [1,1],
  "OutMaps": 1024,
  "Groups": 1,
  "Weights": {"Type": "Int8", "Count": 262144},
  "Bias": {"Type": "Float", "Count": 1024},
  "HasSparseWeights": 0,
  "HasDynamicFilter": 0,
  "HasDynamicBias": 0,
  "HasResidual": 1,
  "ConvXAsActInputIdx": -1,
  "BiasAsActInputIdx": -1,
  "ResAsActInputIdx": -1,
  "Activation": "RELU",
  "HasBias": 1,
  "HasReLU": 1,
  "TacticName": "sm80_xmma_fprop_implicit_gemm_interleaved_i8i8_i8i32_f32_nchw_vect_c_32kcrs_vect_c_32_nchw_vect_c_32_tilesize64x64x64_stage6_warpsize2x2x1_g1_tensor16x8x32_simple_t1r1s1",
  "TacticValue": "0xc22b2f91e37e472a",
  "StreamId": 0,
  "Metadata": "[ONNX Layer: /backbone/layer3/layer3.0/conv3/Conv]\u001e[ONNX Layer: /backbone/layer3/layer3.0/Add]\u001e[ONNX Layer: /backbone/layer3/layer3.0/relu_2/Relu]"
},{
  "Name": "/backbone/layer3/layer3.1/conv1/Conv + /backbone/layer3/layer3.1/relu/Relu",
  "LayerType": "CaskConvolution",
  "Inputs": [
  {
    "Name": "/backbone/layer3/layer3.0/relu_2/Relu_output_0",
    "Location": "Device",
    "Dimensions": [1,1024,14,14],
    "Format/Datatype": "Thirty-two wide channel vectorized row major Int8 format"
  }],
  "Outputs": [
  {
    "Name": "/backbone/layer3/layer3.1/relu/Relu_output_0",
    "Location": "Device",
    "Dimensions": [1,256,14,14],
    "Format/Datatype": "Thirty-two wide channel vectorized row major Int8 format"
  }],
  "ParameterType": "Convolution",
  "Kernel": [1,1],
  "PaddingMode": "kEXPLICIT_ROUND_DOWN",
  "PrePadding": [0,0],
  "PostPadding": [0,0],
  "Stride": [1,1],
  "Dilation": [1,1],
  "OutMaps": 256,
  "Groups": 1,
  "Weights": {"Type": "Int8", "Count": 262144},
  "Bias": {"Type": "Float", "Count": 256},
  "HasSparseWeights": 0,
  "HasDynamicFilter": 0,
  "HasDynamicBias": 0,
  "HasResidual": 0,
  "ConvXAsActInputIdx": -1,
  "BiasAsActInputIdx": -1,
  "ResAsActInputIdx": -1,
  "Activation": "RELU",
  "HasBias": 1,
  "HasReLU": 1,
  "TacticName": "sm80_xmma_fprop_implicit_gemm_interleaved_i8i8_i8i32_f32_nchw_vect_c_32kcrs_vect_c_32_nchw_vect_c_32_tilesize32x64x64_stage6_warpsize2x2x1_g1_tensor16x8x32_simple_t1r1s1",
  "TacticValue": "0x31de506085a332d4",
  "StreamId": 0,
  "Metadata": "[ONNX Layer: /backbone/layer3/layer3.1/conv1/Conv]\u001e[ONNX Layer: /backbone/layer3/layer3.1/relu/Relu]"
},{
  "Name": "/backbone/layer3/layer3.1/conv2/Conv + /backbone/layer3/layer3.1/relu_1/Relu",
  "LayerType": "CaskConvolution",
  "Inputs": [
  {
    "Name": "/backbone/layer3/layer3.1/relu/Relu_output_0",
    "Location": "Device",
    "Dimensions": [1,256,14,14],
    "Format/Datatype": "Thirty-two wide channel vectorized row major Int8 format"
  }],
  "Outputs": [
  {
    "Name": "/backbone/layer3/layer3.1/relu_1/Relu_output_0",
    "Location": "Device",
    "Dimensions": [1,256,14,14],
    "Format/Datatype": "Thirty-two wide channel vectorized row major Int8 format"
  }],
  "ParameterType": "Convolution",
  "Kernel": [3,3],
  "PaddingMode": "kEXPLICIT_ROUND_DOWN",
  "PrePadding": [1,1],
  "PostPadding": [1,1],
  "Stride": [1,1],
  "Dilation": [1,1],
  "OutMaps": 256,
  "Groups": 1,
  "Weights": {"Type": "Int8", "Count": 589824},
  "Bias": {"Type": "Float", "Count": 256},
  "HasSparseWeights": 0,
  "HasDynamicFilter": 0,
  "HasDynamicBias": 0,
  "HasResidual": 0,
  "ConvXAsActInputIdx": -1,
  "BiasAsActInputIdx": -1,
  "ResAsActInputIdx": -1,
  "Activation": "RELU",
  "HasBias": 1,
  "HasReLU": 1,
  "TacticName": "sm80_xmma_fprop_implicit_gemm_interleaved_i8i8_i8i32_f32_nchw_vect_c_32kcrs_vect_c_32_nchw_vect_c_32_tilesize32x32x64_stage6_warpsize2x1x1_g1_tensor16x8x32_t1r3s3",
  "TacticValue": "0x4749124f62d8bd23",
  "StreamId": 0,
  "Metadata": "[ONNX Layer: /backbone/layer3/layer3.1/conv2/Conv]\u001e[ONNX Layer: /backbone/layer3/layer3.1/relu_1/Relu]"
},{
  "Name": "/backbone/layer3/layer3.1/conv3/Conv + /backbone/layer3/layer3.1/Add + /backbone/layer3/layer3.1/relu_2/Relu",
  "LayerType": "CaskConvolution",
  "Inputs": [
  {
    "Name": "/backbone/layer3/layer3.1/relu_1/Relu_output_0",
    "Location": "Device",
    "Dimensions": [1,256,14,14],
    "Format/Datatype": "Thirty-two wide channel vectorized row major Int8 format"
  },
  {
    "Name": "/backbone/layer3/layer3.0/relu_2/Relu_output_0",
    "Location": "Device",
    "Dimensions": [1,1024,14,14],
    "Format/Datatype": "Thirty-two wide channel vectorized row major Int8 format"
  }],
  "Outputs": [
  {
    "Name": "/backbone/layer3/layer3.1/relu_2/Relu_output_0",
    "Location": "Device",
    "Dimensions": [1,1024,14,14],
    "Format/Datatype": "Thirty-two wide channel vectorized row major Int8 format"
  }],
  "ParameterType": "Convolution",
  "Kernel": [1,1],
  "PaddingMode": "kEXPLICIT_ROUND_DOWN",
  "PrePadding": [0,0],
  "PostPadding": [0,0],
  "Stride": [1,1],
  "Dilation": [1,1],
  "OutMaps": 1024,
  "Groups": 1,
  "Weights": {"Type": "Int8", "Count": 262144},
  "Bias": {"Type": "Float", "Count": 1024},
  "HasSparseWeights": 0,
  "HasDynamicFilter": 0,
  "HasDynamicBias": 0,
  "HasResidual": 1,
  "ConvXAsActInputIdx": -1,
  "BiasAsActInputIdx": -1,
  "ResAsActInputIdx": -1,
  "Activation": "RELU",
  "HasBias": 1,
  "HasReLU": 1,
  "TacticName": "sm80_xmma_fprop_implicit_gemm_interleaved_i8i8_i8i32_f32_nchw_vect_c_32kcrs_vect_c_32_nchw_vect_c_32_tilesize64x64x64_stage6_warpsize2x2x1_g1_tensor16x8x32_simple_t1r1s1",
  "TacticValue": "0xc22b2f91e37e472a",
  "StreamId": 0,
  "Metadata": "[ONNX Layer: /backbone/layer3/layer3.1/conv3/Conv]\u001e[ONNX Layer: /backbone/layer3/layer3.1/Add]\u001e[ONNX Layer: /backbone/layer3/layer3.1/relu_2/Relu]"
},{
  "Name": "/backbone/layer3/layer3.2/conv1/Conv + /backbone/layer3/layer3.2/relu/Relu",
  "LayerType": "CaskConvolution",
  "Inputs": [
  {
    "Name": "/backbone/layer3/layer3.1/relu_2/Relu_output_0",
    "Location": "Device",
    "Dimensions": [1,1024,14,14],
    "Format/Datatype": "Thirty-two wide channel vectorized row major Int8 format"
  }],
  "Outputs": [
  {
    "Name": "/backbone/layer3/layer3.2/relu/Relu_output_0",
    "Location": "Device",
    "Dimensions": [1,256,14,14],
    "Format/Datatype": "Thirty-two wide channel vectorized row major Int8 format"
  }],
  "ParameterType": "Convolution",
  "Kernel": [1,1],
  "PaddingMode": "kEXPLICIT_ROUND_DOWN",
  "PrePadding": [0,0],
  "PostPadding": [0,0],
  "Stride": [1,1],
  "Dilation": [1,1],
  "OutMaps": 256,
  "Groups": 1,
  "Weights": {"Type": "Int8", "Count": 262144},
  "Bias": {"Type": "Float", "Count": 256},
  "HasSparseWeights": 0,
  "HasDynamicFilter": 0,
  "HasDynamicBias": 0,
  "HasResidual": 0,
  "ConvXAsActInputIdx": -1,
  "BiasAsActInputIdx": -1,
  "ResAsActInputIdx": -1,
  "Activation": "RELU",
  "HasBias": 1,
  "HasReLU": 1,
  "TacticName": "sm80_xmma_fprop_implicit_gemm_interleaved_i8i8_i8i32_f32_nchw_vect_c_32kcrs_vect_c_32_nchw_vect_c_32_tilesize32x64x64_stage6_warpsize2x2x1_g1_tensor16x8x32_simple_t1r1s1",
  "TacticValue": "0x31de506085a332d4",
  "StreamId": 0,
  "Metadata": "[ONNX Layer: /backbone/layer3/layer3.2/conv1/Conv]\u001e[ONNX Layer: /backbone/layer3/layer3.2/relu/Relu]"
},{
  "Name": "/backbone/layer3/layer3.2/conv2/Conv + /backbone/layer3/layer3.2/relu_1/Relu",
  "LayerType": "CaskConvolution",
  "Inputs": [
  {
    "Name": "/backbone/layer3/layer3.2/relu/Relu_output_0",
    "Location": "Device",
    "Dimensions": [1,256,14,14],
    "Format/Datatype": "Thirty-two wide channel vectorized row major Int8 format"
  }],
  "Outputs": [
  {
    "Name": "/backbone/layer3/layer3.2/relu_1/Relu_output_0",
    "Location": "Device",
    "Dimensions": [1,256,14,14],
    "Format/Datatype": "Thirty-two wide channel vectorized row major Int8 format"
  }],
  "ParameterType": "Convolution",
  "Kernel": [3,3],
  "PaddingMode": "kEXPLICIT_ROUND_DOWN",
  "PrePadding": [1,1],
  "PostPadding": [1,1],
  "Stride": [1,1],
  "Dilation": [1,1],
  "OutMaps": 256,
  "Groups": 1,
  "Weights": {"Type": "Int8", "Count": 589824},
  "Bias": {"Type": "Float", "Count": 256},
  "HasSparseWeights": 0,
  "HasDynamicFilter": 0,
  "HasDynamicBias": 0,
  "HasResidual": 0,
  "ConvXAsActInputIdx": -1,
  "BiasAsActInputIdx": -1,
  "ResAsActInputIdx": -1,
  "Activation": "RELU",
  "HasBias": 1,
  "HasReLU": 1,
  "TacticName": "sm80_xmma_fprop_implicit_gemm_interleaved_i8i8_i8i32_f32_nchw_vect_c_32kcrs_vect_c_32_nchw_vect_c_32_tilesize32x32x64_stage6_warpsize2x1x1_g1_tensor16x8x32_t1r3s3",
  "TacticValue": "0x4749124f62d8bd23",
  "StreamId": 0,
  "Metadata": "[ONNX Layer: /backbone/layer3/layer3.2/conv2/Conv]\u001e[ONNX Layer: /backbone/layer3/layer3.2/relu_1/Relu]"
},{
  "Name": "/backbone/layer3/layer3.2/conv3/Conv + /backbone/layer3/layer3.2/Add + /backbone/layer3/layer3.2/relu_2/Relu",
  "LayerType": "CaskConvolution",
  "Inputs": [
  {
    "Name": "/backbone/layer3/layer3.2/relu_1/Relu_output_0",
    "Location": "Device",
    "Dimensions": [1,256,14,14],
    "Format/Datatype": "Thirty-two wide channel vectorized row major Int8 format"
  },
  {
    "Name": "/backbone/layer3/layer3.1/relu_2/Relu_output_0",
    "Location": "Device",
    "Dimensions": [1,1024,14,14],
    "Format/Datatype": "Thirty-two wide channel vectorized row major Int8 format"
  }],
  "Outputs": [
  {
    "Name": "/backbone/layer3/layer3.2/relu_2/Relu_output_0",
    "Location": "Device",
    "Dimensions": [1,1024,14,14],
    "Format/Datatype": "Thirty-two wide channel vectorized row major Int8 format"
  }],
  "ParameterType": "Convolution",
  "Kernel": [1,1],
  "PaddingMode": "kEXPLICIT_ROUND_DOWN",
  "PrePadding": [0,0],
  "PostPadding": [0,0],
  "Stride": [1,1],
  "Dilation": [1,1],
  "OutMaps": 1024,
  "Groups": 1,
  "Weights": {"Type": "Int8", "Count": 262144},
  "Bias": {"Type": "Float", "Count": 1024},
  "HasSparseWeights": 0,
  "HasDynamicFilter": 0,
  "HasDynamicBias": 0,
  "HasResidual": 1,
  "ConvXAsActInputIdx": -1,
  "BiasAsActInputIdx": -1,
  "ResAsActInputIdx": -1,
  "Activation": "RELU",
  "HasBias": 1,
  "HasReLU": 1,
  "TacticName": "sm80_xmma_fprop_implicit_gemm_interleaved_i8i8_i8i32_f32_nchw_vect_c_32kcrs_vect_c_32_nchw_vect_c_32_tilesize64x64x64_stage6_warpsize2x2x1_g1_tensor16x8x32_simple_t1r1s1",
  "TacticValue": "0xc22b2f91e37e472a",
  "StreamId": 0,
  "Metadata": "[ONNX Layer: /backbone/layer3/layer3.2/conv3/Conv]\u001e[ONNX Layer: /backbone/layer3/layer3.2/Add]\u001e[ONNX Layer: /backbone/layer3/layer3.2/relu_2/Relu]"
},{
  "Name": "/backbone/layer3/layer3.3/conv1/Conv + /backbone/layer3/layer3.3/relu/Relu",
  "LayerType": "CaskConvolution",
  "Inputs": [
  {
    "Name": "/backbone/layer3/layer3.2/relu_2/Relu_output_0",
    "Location": "Device",
    "Dimensions": [1,1024,14,14],
    "Format/Datatype": "Thirty-two wide channel vectorized row major Int8 format"
  }],
  "Outputs": [
  {
    "Name": "/backbone/layer3/layer3.3/relu/Relu_output_0",
    "Location": "Device",
    "Dimensions": [1,256,14,14],
    "Format/Datatype": "Thirty-two wide channel vectorized row major Int8 format"
  }],
  "ParameterType": "Convolution",
  "Kernel": [1,1],
  "PaddingMode": "kEXPLICIT_ROUND_DOWN",
  "PrePadding": [0,0],
  "PostPadding": [0,0],
  "Stride": [1,1],
  "Dilation": [1,1],
  "OutMaps": 256,
  "Groups": 1,
  "Weights": {"Type": "Int8", "Count": 262144},
  "Bias": {"Type": "Float", "Count": 256},
  "HasSparseWeights": 0,
  "HasDynamicFilter": 0,
  "HasDynamicBias": 0,
  "HasResidual": 0,
  "ConvXAsActInputIdx": -1,
  "BiasAsActInputIdx": -1,
  "ResAsActInputIdx": -1,
  "Activation": "RELU",
  "HasBias": 1,
  "HasReLU": 1,
  "TacticName": "sm80_xmma_fprop_implicit_gemm_interleaved_i8i8_i8i32_f32_nchw_vect_c_32kcrs_vect_c_32_nchw_vect_c_32_tilesize32x64x64_stage6_warpsize2x2x1_g1_tensor16x8x32_simple_t1r1s1",
  "TacticValue": "0x31de506085a332d4",
  "StreamId": 0,
  "Metadata": "[ONNX Layer: /backbone/layer3/layer3.3/conv1/Conv]\u001e[ONNX Layer: /backbone/layer3/layer3.3/relu/Relu]"
},{
  "Name": "/backbone/layer3/layer3.3/conv2/Conv + /backbone/layer3/layer3.3/relu_1/Relu",
  "LayerType": "CaskConvolution",
  "Inputs": [
  {
    "Name": "/backbone/layer3/layer3.3/relu/Relu_output_0",
    "Location": "Device",
    "Dimensions": [1,256,14,14],
    "Format/Datatype": "Thirty-two wide channel vectorized row major Int8 format"
  }],
  "Outputs": [
  {
    "Name": "/backbone/layer3/layer3.3/relu_1/Relu_output_0",
    "Location": "Device",
    "Dimensions": [1,256,14,14],
    "Format/Datatype": "Thirty-two wide channel vectorized row major Int8 format"
  }],
  "ParameterType": "Convolution",
  "Kernel": [3,3],
  "PaddingMode": "kEXPLICIT_ROUND_DOWN",
  "PrePadding": [1,1],
  "PostPadding": [1,1],
  "Stride": [1,1],
  "Dilation": [1,1],
  "OutMaps": 256,
  "Groups": 1,
  "Weights": {"Type": "Int8", "Count": 589824},
  "Bias": {"Type": "Float", "Count": 256},
  "HasSparseWeights": 0,
  "HasDynamicFilter": 0,
  "HasDynamicBias": 0,
  "HasResidual": 0,
  "ConvXAsActInputIdx": -1,
  "BiasAsActInputIdx": -1,
  "ResAsActInputIdx": -1,
  "Activation": "RELU",
  "HasBias": 1,
  "HasReLU": 1,
  "TacticName": "sm80_xmma_fprop_implicit_gemm_interleaved_i8i8_i8i32_f32_nchw_vect_c_32kcrs_vect_c_32_nchw_vect_c_32_tilesize32x32x64_stage6_warpsize2x1x1_g1_tensor16x8x32_t1r3s3",
  "TacticValue": "0x4749124f62d8bd23",
  "StreamId": 0,
  "Metadata": "[ONNX Layer: /backbone/layer3/layer3.3/conv2/Conv]\u001e[ONNX Layer: /backbone/layer3/layer3.3/relu_1/Relu]"
},{
  "Name": "/backbone/layer3/layer3.3/conv3/Conv + /backbone/layer3/layer3.3/Add + /backbone/layer3/layer3.3/relu_2/Relu",
  "LayerType": "CaskConvolution",
  "Inputs": [
  {
    "Name": "/backbone/layer3/layer3.3/relu_1/Relu_output_0",
    "Location": "Device",
    "Dimensions": [1,256,14,14],
    "Format/Datatype": "Thirty-two wide channel vectorized row major Int8 format"
  },
  {
    "Name": "/backbone/layer3/layer3.2/relu_2/Relu_output_0",
    "Location": "Device",
    "Dimensions": [1,1024,14,14],
    "Format/Datatype": "Thirty-two wide channel vectorized row major Int8 format"
  }],
  "Outputs": [
  {
    "Name": "/backbone/layer3/layer3.3/relu_2/Relu_output_0",
    "Location": "Device",
    "Dimensions": [1,1024,14,14],
    "Format/Datatype": "Thirty-two wide channel vectorized row major Int8 format"
  }],
  "ParameterType": "Convolution",
  "Kernel": [1,1],
  "PaddingMode": "kEXPLICIT_ROUND_DOWN",
  "PrePadding": [0,0],
  "PostPadding": [0,0],
  "Stride": [1,1],
  "Dilation": [1,1],
  "OutMaps": 1024,
  "Groups": 1,
  "Weights": {"Type": "Int8", "Count": 262144},
  "Bias": {"Type": "Float", "Count": 1024},
  "HasSparseWeights": 0,
  "HasDynamicFilter": 0,
  "HasDynamicBias": 0,
  "HasResidual": 1,
  "ConvXAsActInputIdx": -1,
  "BiasAsActInputIdx": -1,
  "ResAsActInputIdx": -1,
  "Activation": "RELU",
  "HasBias": 1,
  "HasReLU": 1,
  "TacticName": "sm80_xmma_fprop_implicit_gemm_interleaved_i8i8_i8i32_f32_nchw_vect_c_32kcrs_vect_c_32_nchw_vect_c_32_tilesize64x64x64_stage6_warpsize2x2x1_g1_tensor16x8x32_simple_t1r1s1",
  "TacticValue": "0xc22b2f91e37e472a",
  "StreamId": 0,
  "Metadata": "[ONNX Layer: /backbone/layer3/layer3.3/conv3/Conv]\u001e[ONNX Layer: /backbone/layer3/layer3.3/Add]\u001e[ONNX Layer: /backbone/layer3/layer3.3/relu_2/Relu]"
},{
  "Name": "/backbone/layer3/layer3.4/conv1/Conv + /backbone/layer3/layer3.4/relu/Relu",
  "LayerType": "CaskConvolution",
  "Inputs": [
  {
    "Name": "/backbone/layer3/layer3.3/relu_2/Relu_output_0",
    "Location": "Device",
    "Dimensions": [1,1024,14,14],
    "Format/Datatype": "Thirty-two wide channel vectorized row major Int8 format"
  }],
  "Outputs": [
  {
    "Name": "/backbone/layer3/layer3.4/relu/Relu_output_0",
    "Location": "Device",
    "Dimensions": [1,256,14,14],
    "Format/Datatype": "Thirty-two wide channel vectorized row major Int8 format"
  }],
  "ParameterType": "Convolution",
  "Kernel": [1,1],
  "PaddingMode": "kEXPLICIT_ROUND_DOWN",
  "PrePadding": [0,0],
  "PostPadding": [0,0],
  "Stride": [1,1],
  "Dilation": [1,1],
  "OutMaps": 256,
  "Groups": 1,
  "Weights": {"Type": "Int8", "Count": 262144},
  "Bias": {"Type": "Float", "Count": 256},
  "HasSparseWeights": 0,
  "HasDynamicFilter": 0,
  "HasDynamicBias": 0,
  "HasResidual": 0,
  "ConvXAsActInputIdx": -1,
  "BiasAsActInputIdx": -1,
  "ResAsActInputIdx": -1,
  "Activation": "RELU",
  "HasBias": 1,
  "HasReLU": 1,
  "TacticName": "sm80_xmma_fprop_implicit_gemm_interleaved_i8i8_i8i32_f32_nchw_vect_c_32kcrs_vect_c_32_nchw_vect_c_32_tilesize32x64x64_stage6_warpsize2x2x1_g1_tensor16x8x32_simple_t1r1s1",
  "TacticValue": "0x31de506085a332d4",
  "StreamId": 0,
  "Metadata": "[ONNX Layer: /backbone/layer3/layer3.4/conv1/Conv]\u001e[ONNX Layer: /backbone/layer3/layer3.4/relu/Relu]"
},{
  "Name": "/backbone/layer3/layer3.4/conv2/Conv + /backbone/layer3/layer3.4/relu_1/Relu",
  "LayerType": "CaskConvolution",
  "Inputs": [
  {
    "Name": "/backbone/layer3/layer3.4/relu/Relu_output_0",
    "Location": "Device",
    "Dimensions": [1,256,14,14],
    "Format/Datatype": "Thirty-two wide channel vectorized row major Int8 format"
  }],
  "Outputs": [
  {
    "Name": "/backbone/layer3/layer3.4/relu_1/Relu_output_0",
    "Location": "Device",
    "Dimensions": [1,256,14,14],
    "Format/Datatype": "Thirty-two wide channel vectorized row major Int8 format"
  }],
  "ParameterType": "Convolution",
  "Kernel": [3,3],
  "PaddingMode": "kEXPLICIT_ROUND_DOWN",
  "PrePadding": [1,1],
  "PostPadding": [1,1],
  "Stride": [1,1],
  "Dilation": [1,1],
  "OutMaps": 256,
  "Groups": 1,
  "Weights": {"Type": "Int8", "Count": 589824},
  "Bias": {"Type": "Float", "Count": 256},
  "HasSparseWeights": 0,
  "HasDynamicFilter": 0,
  "HasDynamicBias": 0,
  "HasResidual": 0,
  "ConvXAsActInputIdx": -1,
  "BiasAsActInputIdx": -1,
  "ResAsActInputIdx": -1,
  "Activation": "RELU",
  "HasBias": 1,
  "HasReLU": 1,
  "TacticName": "sm80_xmma_fprop_implicit_gemm_interleaved_i8i8_i8i32_f32_nchw_vect_c_32kcrs_vect_c_32_nchw_vect_c_32_tilesize32x32x64_stage6_warpsize2x1x1_g1_tensor16x8x32_t1r3s3",
  "TacticValue": "0x4749124f62d8bd23",
  "StreamId": 0,
  "Metadata": "[ONNX Layer: /backbone/layer3/layer3.4/conv2/Conv]\u001e[ONNX Layer: /backbone/layer3/layer3.4/relu_1/Relu]"
},{
  "Name": "/backbone/layer3/layer3.4/conv3/Conv + /backbone/layer3/layer3.4/Add + /backbone/layer3/layer3.4/relu_2/Relu",
  "LayerType": "CaskConvolution",
  "Inputs": [
  {
    "Name": "/backbone/layer3/layer3.4/relu_1/Relu_output_0",
    "Location": "Device",
    "Dimensions": [1,256,14,14],
    "Format/Datatype": "Thirty-two wide channel vectorized row major Int8 format"
  },
  {
    "Name": "/backbone/layer3/layer3.3/relu_2/Relu_output_0",
    "Location": "Device",
    "Dimensions": [1,1024,14,14],
    "Format/Datatype": "Thirty-two wide channel vectorized row major Int8 format"
  }],
  "Outputs": [
  {
    "Name": "/backbone/layer3/layer3.4/relu_2/Relu_output_0",
    "Location": "Device",
    "Dimensions": [1,1024,14,14],
    "Format/Datatype": "Thirty-two wide channel vectorized row major Int8 format"
  }],
  "ParameterType": "Convolution",
  "Kernel": [1,1],
  "PaddingMode": "kEXPLICIT_ROUND_DOWN",
  "PrePadding": [0,0],
  "PostPadding": [0,0],
  "Stride": [1,1],
  "Dilation": [1,1],
  "OutMaps": 1024,
  "Groups": 1,
  "Weights": {"Type": "Int8", "Count": 262144},
  "Bias": {"Type": "Float", "Count": 1024},
  "HasSparseWeights": 0,
  "HasDynamicFilter": 0,
  "HasDynamicBias": 0,
  "HasResidual": 1,
  "ConvXAsActInputIdx": -1,
  "BiasAsActInputIdx": -1,
  "ResAsActInputIdx": -1,
  "Activation": "RELU",
  "HasBias": 1,
  "HasReLU": 1,
  "TacticName": "sm80_xmma_fprop_implicit_gemm_interleaved_i8i8_i8i32_f32_nchw_vect_c_32kcrs_vect_c_32_nchw_vect_c_32_tilesize64x64x64_stage6_warpsize2x2x1_g1_tensor16x8x32_simple_t1r1s1",
  "TacticValue": "0xc22b2f91e37e472a",
  "StreamId": 0,
  "Metadata": "[ONNX Layer: /backbone/layer3/layer3.4/conv3/Conv]\u001e[ONNX Layer: /backbone/layer3/layer3.4/Add]\u001e[ONNX Layer: /backbone/layer3/layer3.4/relu_2/Relu]"
},{
  "Name": "/backbone/layer3/layer3.5/conv1/Conv + /backbone/layer3/layer3.5/relu/Relu",
  "LayerType": "CaskConvolution",
  "Inputs": [
  {
    "Name": "/backbone/layer3/layer3.4/relu_2/Relu_output_0",
    "Location": "Device",
    "Dimensions": [1,1024,14,14],
    "Format/Datatype": "Thirty-two wide channel vectorized row major Int8 format"
  }],
  "Outputs": [
  {
    "Name": "/backbone/layer3/layer3.5/relu/Relu_output_0",
    "Location": "Device",
    "Dimensions": [1,256,14,14],
    "Format/Datatype": "Thirty-two wide channel vectorized row major Int8 format"
  }],
  "ParameterType": "Convolution",
  "Kernel": [1,1],
  "PaddingMode": "kEXPLICIT_ROUND_DOWN",
  "PrePadding": [0,0],
  "PostPadding": [0,0],
  "Stride": [1,1],
  "Dilation": [1,1],
  "OutMaps": 256,
  "Groups": 1,
  "Weights": {"Type": "Int8", "Count": 262144},
  "Bias": {"Type": "Float", "Count": 256},
  "HasSparseWeights": 0,
  "HasDynamicFilter": 0,
  "HasDynamicBias": 0,
  "HasResidual": 0,
  "ConvXAsActInputIdx": -1,
  "BiasAsActInputIdx": -1,
  "ResAsActInputIdx": -1,
  "Activation": "RELU",
  "HasBias": 1,
  "HasReLU": 1,
  "TacticName": "sm80_xmma_fprop_implicit_gemm_interleaved_i8i8_i8i32_f32_nchw_vect_c_32kcrs_vect_c_32_nchw_vect_c_32_tilesize32x64x64_stage6_warpsize2x2x1_g1_tensor16x8x32_simple_t1r1s1",
  "TacticValue": "0x31de506085a332d4",
  "StreamId": 0,
  "Metadata": "[ONNX Layer: /backbone/layer3/layer3.5/conv1/Conv]\u001e[ONNX Layer: /backbone/layer3/layer3.5/relu/Relu]"
},{
  "Name": "/backbone/layer3/layer3.5/conv2/Conv + /backbone/layer3/layer3.5/relu_1/Relu",
  "LayerType": "CaskConvolution",
  "Inputs": [
  {
    "Name": "/backbone/layer3/layer3.5/relu/Relu_output_0",
    "Location": "Device",
    "Dimensions": [1,256,14,14],
    "Format/Datatype": "Thirty-two wide channel vectorized row major Int8 format"
  }],
  "Outputs": [
  {
    "Name": "/backbone/layer3/layer3.5/relu_1/Relu_output_0",
    "Location": "Device",
    "Dimensions": [1,256,14,14],
    "Format/Datatype": "Thirty-two wide channel vectorized row major Int8 format"
  }],
  "ParameterType": "Convolution",
  "Kernel": [3,3],
  "PaddingMode": "kEXPLICIT_ROUND_DOWN",
  "PrePadding": [1,1],
  "PostPadding": [1,1],
  "Stride": [1,1],
  "Dilation": [1,1],
  "OutMaps": 256,
  "Groups": 1,
  "Weights": {"Type": "Int8", "Count": 589824},
  "Bias": {"Type": "Float", "Count": 256},
  "HasSparseWeights": 0,
  "HasDynamicFilter": 0,
  "HasDynamicBias": 0,
  "HasResidual": 0,
  "ConvXAsActInputIdx": -1,
  "BiasAsActInputIdx": -1,
  "ResAsActInputIdx": -1,
  "Activation": "RELU",
  "HasBias": 1,
  "HasReLU": 1,
  "TacticName": "sm80_xmma_fprop_implicit_gemm_interleaved_i8i8_i8i32_f32_nchw_vect_c_32kcrs_vect_c_32_nchw_vect_c_32_tilesize32x32x64_stage6_warpsize2x1x1_g1_tensor16x8x32_t1r3s3",
  "TacticValue": "0x4749124f62d8bd23",
  "StreamId": 0,
  "Metadata": "[ONNX Layer: /backbone/layer3/layer3.5/conv2/Conv]\u001e[ONNX Layer: /backbone/layer3/layer3.5/relu_1/Relu]"
},{
  "Name": "/backbone/layer3/layer3.5/conv3/Conv + /backbone/layer3/layer3.5/Add + /backbone/layer3/layer3.5/relu_2/Relu",
  "LayerType": "CaskConvolution",
  "Inputs": [
  {
    "Name": "/backbone/layer3/layer3.5/relu_1/Relu_output_0",
    "Location": "Device",
    "Dimensions": [1,256,14,14],
    "Format/Datatype": "Thirty-two wide channel vectorized row major Int8 format"
  },
  {
    "Name": "/backbone/layer3/layer3.4/relu_2/Relu_output_0",
    "Location": "Device",
    "Dimensions": [1,1024,14,14],
    "Format/Datatype": "Thirty-two wide channel vectorized row major Int8 format"
  }],
  "Outputs": [
  {
    "Name": "/backbone/layer3/layer3.5/relu_2/Relu_output_0",
    "Location": "Device",
    "Dimensions": [1,1024,14,14],
    "Format/Datatype": "Thirty-two wide channel vectorized row major Int8 format"
  }],
  "ParameterType": "Convolution",
  "Kernel": [1,1],
  "PaddingMode": "kEXPLICIT_ROUND_DOWN",
  "PrePadding": [0,0],
  "PostPadding": [0,0],
  "Stride": [1,1],
  "Dilation": [1,1],
  "OutMaps": 1024,
  "Groups": 1,
  "Weights": {"Type": "Int8", "Count": 262144},
  "Bias": {"Type": "Float", "Count": 1024},
  "HasSparseWeights": 0,
  "HasDynamicFilter": 0,
  "HasDynamicBias": 0,
  "HasResidual": 1,
  "ConvXAsActInputIdx": -1,
  "BiasAsActInputIdx": -1,
  "ResAsActInputIdx": -1,
  "Activation": "RELU",
  "HasBias": 1,
  "HasReLU": 1,
  "TacticName": "sm80_xmma_fprop_implicit_gemm_interleaved_i8i8_i8i32_f32_nchw_vect_c_32kcrs_vect_c_32_nchw_vect_c_32_tilesize64x64x64_stage6_warpsize2x2x1_g1_tensor16x8x32_simple_t1r1s1",
  "TacticValue": "0xc22b2f91e37e472a",
  "StreamId": 0,
  "Metadata": "[ONNX Layer: /backbone/layer3/layer3.5/conv3/Conv]\u001e[ONNX Layer: /backbone/layer3/layer3.5/Add]\u001e[ONNX Layer: /backbone/layer3/layer3.5/relu_2/Relu]"
},{
  "Name": "/backbone/layer4/layer4.0/conv1/Conv + /backbone/layer4/layer4.0/relu/Relu",
  "LayerType": "CaskConvolution",
  "Inputs": [
  {
    "Name": "/backbone/layer3/layer3.5/relu_2/Relu_output_0",
    "Location": "Device",
    "Dimensions": [1,1024,14,14],
    "Format/Datatype": "Thirty-two wide channel vectorized row major Int8 format"
  }],
  "Outputs": [
  {
    "Name": "/backbone/layer4/layer4.0/relu/Relu_output_0",
    "Location": "Device",
    "Dimensions": [1,512,14,14],
    "Format/Datatype": "Thirty-two wide channel vectorized row major Int8 format"
  }],
  "ParameterType": "Convolution",
  "Kernel": [1,1],
  "PaddingMode": "kEXPLICIT_ROUND_DOWN",
  "PrePadding": [0,0],
  "PostPadding": [0,0],
  "Stride": [1,1],
  "Dilation": [1,1],
  "OutMaps": 512,
  "Groups": 1,
  "Weights": {"Type": "Int8", "Count": 524288},
  "Bias": {"Type": "Float", "Count": 512},
  "HasSparseWeights": 0,
  "HasDynamicFilter": 0,
  "HasDynamicBias": 0,
  "HasResidual": 0,
  "ConvXAsActInputIdx": -1,
  "BiasAsActInputIdx": -1,
  "ResAsActInputIdx": -1,
  "Activation": "RELU",
  "HasBias": 1,
  "HasReLU": 1,
  "TacticName": "sm80_xmma_fprop_implicit_gemm_interleaved_i8i8_i8i32_f32_nchw_vect_c_32kcrs_vect_c_32_nchw_vect_c_32_tilesize64x64x64_stage6_warpsize2x2x1_g1_tensor16x8x32_simple_t1r1s1",
  "TacticValue": "0xc22b2f91e37e472a",
  "StreamId": 0,
  "Metadata": "[ONNX Layer: /backbone/layer4/layer4.0/conv1/Conv]\u001e[ONNX Layer: /backbone/layer4/layer4.0/relu/Relu]"
},{
  "Name": "/backbone/layer4/layer4.0/conv2/Conv + /backbone/layer4/layer4.0/relu_1/Relu",
  "LayerType": "CaskConvolution",
  "Inputs": [
  {
    "Name": "/backbone/layer4/layer4.0/relu/Relu_output_0",
    "Location": "Device",
    "Dimensions": [1,512,14,14],
    "Format/Datatype": "Thirty-two wide channel vectorized row major Int8 format"
  }],
  "Outputs": [
  {
    "Name": "/backbone/layer4/layer4.0/relu_1/Relu_output_0",
    "Location": "Device",
    "Dimensions": [1,512,7,7],
    "Format/Datatype": "Thirty-two wide channel vectorized row major Int8 format"
  }],
  "ParameterType": "Convolution",
  "Kernel": [3,3],
  "PaddingMode": "kEXPLICIT_ROUND_DOWN",
  "PrePadding": [1,1],
  "PostPadding": [1,1],
  "Stride": [2,2],
  "Dilation": [1,1],
  "OutMaps": 512,
  "Groups": 1,
  "Weights": {"Type": "Int8", "Count": 2359296},
  "Bias": {"Type": "Float", "Count": 512},
  "HasSparseWeights": 0,
  "HasDynamicFilter": 0,
  "HasDynamicBias": 0,
  "HasResidual": 0,
  "ConvXAsActInputIdx": -1,
  "BiasAsActInputIdx": -1,
  "ResAsActInputIdx": -1,
  "Activation": "RELU",
  "HasBias": 1,
  "HasReLU": 1,
  "TacticName": "sm80_xmma_fprop_implicit_gemm_interleaved_i8i8_i8i32_f32_nchw_vect_c_32kcrs_vect_c_32_nchw_vect_c_32_tilesize32x32x64_stage6_warpsize2x1x1_g1_tensor16x8x32_t1r3s3",
  "TacticValue": "0x4749124f62d8bd23",
  "StreamId": 0,
  "Metadata": "[ONNX Layer: /backbone/layer4/layer4.0/conv2/Conv]\u001e[ONNX Layer: /backbone/layer4/layer4.0/relu_1/Relu]"
},{
  "Name": "/backbone/layer4/layer4.0/downsample/downsample.0/Conv",
  "LayerType": "CaskConvolution",
  "Inputs": [
  {
    "Name": "/backbone/layer3/layer3.5/relu_2/Relu_output_0",
    "Location": "Device",
    "Dimensions": [1,1024,14,14],
    "Format/Datatype": "Thirty-two wide channel vectorized row major Int8 format"
  }],
  "Outputs": [
  {
    "Name": "/backbone/layer4/layer4.0/downsample/downsample.0/Conv_output_0",
    "Location": "Device",
    "Dimensions": [1,2048,7,7],
    "Format/Datatype": "Thirty-two wide channel vectorized row major Int8 format"
  }],
  "ParameterType": "Convolution",
  "Kernel": [1,1],
  "PaddingMode": "kEXPLICIT_ROUND_DOWN",
  "PrePadding": [0,0],
  "PostPadding": [0,0],
  "Stride": [2,2],
  "Dilation": [1,1],
  "OutMaps": 2048,
  "Groups": 1,
  "Weights": {"Type": "Int8", "Count": 2097152},
  "Bias": {"Type": "Float", "Count": 2048},
  "HasSparseWeights": 0,
  "HasDynamicFilter": 0,
  "HasDynamicBias": 0,
  "HasResidual": 0,
  "ConvXAsActInputIdx": -1,
  "BiasAsActInputIdx": -1,
  "ResAsActInputIdx": -1,
  "Activation": "NONE",
  "HasBias": 1,
  "HasReLU": 0,
  "TacticName": "sm80_xmma_fprop_implicit_gemm_interleaved_i8i8_i8i32_f32_nchw_vect_c_32kcrs_vect_c_32_nchw_vect_c_32_tilesize64x64x64_stage6_warpsize2x2x1_g1_tensor16x8x32_t1r1s1",
  "TacticValue": "0x311b82feb19aef19",
  "StreamId": 0,
  "Metadata": "[ONNX Layer: /backbone/layer4/layer4.0/downsample/downsample.0/Conv]"
},{
  "Name": "/backbone/layer4/layer4.0/conv3/Conv + /backbone/layer4/layer4.0/Add + /backbone/layer4/layer4.0/relu_2/Relu",
  "LayerType": "CaskConvolution",
  "Inputs": [
  {
    "Name": "/backbone/layer4/layer4.0/relu_1/Relu_output_0",
    "Location": "Device",
    "Dimensions": [1,512,7,7],
    "Format/Datatype": "Thirty-two wide channel vectorized row major Int8 format"
  },
  {
    "Name": "/backbone/layer4/layer4.0/downsample/downsample.0/Conv_output_0",
    "Location": "Device",
    "Dimensions": [1,2048,7,7],
    "Format/Datatype": "Thirty-two wide channel vectorized row major Int8 format"
  }],
  "Outputs": [
  {
    "Name": "/backbone/layer4/layer4.0/relu_2/Relu_output_0",
    "Location": "Device",
    "Dimensions": [1,2048,7,7],
    "Format/Datatype": "Thirty-two wide channel vectorized row major Int8 format"
  }],
  "ParameterType": "Convolution",
  "Kernel": [1,1],
  "PaddingMode": "kEXPLICIT_ROUND_DOWN",
  "PrePadding": [0,0],
  "PostPadding": [0,0],
  "Stride": [1,1],
  "Dilation": [1,1],
  "OutMaps": 2048,
  "Groups": 1,
  "Weights": {"Type": "Int8", "Count": 1048576},
  "Bias": {"Type": "Float", "Count": 2048},
  "HasSparseWeights": 0,
  "HasDynamicFilter": 0,
  "HasDynamicBias": 0,
  "HasResidual": 1,
  "ConvXAsActInputIdx": -1,
  "BiasAsActInputIdx": -1,
  "ResAsActInputIdx": -1,
  "Activation": "RELU",
  "HasBias": 1,
  "HasReLU": 1,
  "TacticName": "sm80_xmma_fprop_implicit_gemm_interleaved_i8i8_i8i32_f32_nchw_vect_c_32kcrs_vect_c_32_nchw_vect_c_32_tilesize32x64x64_stage6_warpsize2x2x1_g1_tensor16x8x32_simple_t1r1s1",
  "TacticValue": "0x31de506085a332d4",
  "StreamId": 0,
  "Metadata": "[ONNX Layer: /backbone/layer4/layer4.0/conv3/Conv]\u001e[ONNX Layer: /backbone/layer4/layer4.0/Add]\u001e[ONNX Layer: /backbone/layer4/layer4.0/relu_2/Relu]"
},{
  "Name": "/backbone/layer4/layer4.1/conv1/Conv + /backbone/layer4/layer4.1/relu/Relu",
  "LayerType": "CaskConvolution",
  "Inputs": [
  {
    "Name": "/backbone/layer4/layer4.0/relu_2/Relu_output_0",
    "Location": "Device",
    "Dimensions": [1,2048,7,7],
    "Format/Datatype": "Thirty-two wide channel vectorized row major Int8 format"
  }],
  "Outputs": [
  {
    "Name": "/backbone/layer4/layer4.1/relu/Relu_output_0",
    "Location": "Device",
    "Dimensions": [1,512,7,7],
    "Format/Datatype": "Thirty-two wide channel vectorized row major Int8 format"
  }],
  "ParameterType": "Convolution",
  "Kernel": [1,1],
  "PaddingMode": "kEXPLICIT_ROUND_DOWN",
  "PrePadding": [0,0],
  "PostPadding": [0,0],
  "Stride": [1,1],
  "Dilation": [1,1],
  "OutMaps": 512,
  "Groups": 1,
  "Weights": {"Type": "Int8", "Count": 1048576},
  "Bias": {"Type": "Float", "Count": 512},
  "HasSparseWeights": 0,
  "HasDynamicFilter": 0,
  "HasDynamicBias": 0,
  "HasResidual": 0,
  "ConvXAsActInputIdx": -1,
  "BiasAsActInputIdx": -1,
  "ResAsActInputIdx": -1,
  "Activation": "RELU",
  "HasBias": 1,
  "HasReLU": 1,
  "TacticName": "sm80_xmma_fprop_implicit_gemm_interleaved_i8i8_i8i32_f32_nchw_vect_c_32kcrs_vect_c_32_nchw_vect_c_32_tilesize32x32x64_stage6_warpsize2x1x1_g1_tensor16x8x32_simple_t1r1s1",
  "TacticValue": "0x3912ca79eb9a8be1",
  "StreamId": 0,
  "Metadata": "[ONNX Layer: /backbone/layer4/layer4.1/conv1/Conv]\u001e[ONNX Layer: /backbone/layer4/layer4.1/relu/Relu]"
},{
  "Name": "/backbone/layer4/layer4.1/conv2/Conv + /backbone/layer4/layer4.1/relu_1/Relu",
  "LayerType": "CaskConvolution",
  "Inputs": [
  {
    "Name": "/backbone/layer4/layer4.1/relu/Relu_output_0",
    "Location": "Device",
    "Dimensions": [1,512,7,7],
    "Format/Datatype": "Thirty-two wide channel vectorized row major Int8 format"
  }],
  "Outputs": [
  {
    "Name": "/backbone/layer4/layer4.1/relu_1/Relu_output_0",
    "Location": "Device",
    "Dimensions": [1,512,7,7],
    "Format/Datatype": "Thirty-two wide channel vectorized row major Int8 format"
  }],
  "ParameterType": "Convolution",
  "Kernel": [3,3],
  "PaddingMode": "kEXPLICIT_ROUND_DOWN",
  "PrePadding": [1,1],
  "PostPadding": [1,1],
  "Stride": [1,1],
  "Dilation": [1,1],
  "OutMaps": 512,
  "Groups": 1,
  "Weights": {"Type": "Int8", "Count": 2359296},
  "Bias": {"Type": "Float", "Count": 512},
  "HasSparseWeights": 0,
  "HasDynamicFilter": 0,
  "HasDynamicBias": 0,
  "HasResidual": 0,
  "ConvXAsActInputIdx": -1,
  "BiasAsActInputIdx": -1,
  "ResAsActInputIdx": -1,
  "Activation": "RELU",
  "HasBias": 1,
  "HasReLU": 1,
  "TacticName": "sm80_xmma_fprop_implicit_gemm_interleaved_i8i8_i8i32_f32_nchw_vect_c_32kcrs_vect_c_32_nchw_vect_c_32_tilesize32x32x64_stage6_warpsize2x1x1_g1_tensor16x8x32_t1r3s3",
  "TacticValue": "0x4749124f62d8bd23",
  "StreamId": 0,
  "Metadata": "[ONNX Layer: /backbone/layer4/layer4.1/conv2/Conv]\u001e[ONNX Layer: /backbone/layer4/layer4.1/relu_1/Relu]"
},{
  "Name": "/backbone/layer4/layer4.1/conv3/Conv + /backbone/layer4/layer4.1/Add + /backbone/layer4/layer4.1/relu_2/Relu",
  "LayerType": "CaskConvolution",
  "Inputs": [
  {
    "Name": "/backbone/layer4/layer4.1/relu_1/Relu_output_0",
    "Location": "Device",
    "Dimensions": [1,512,7,7],
    "Format/Datatype": "Thirty-two wide channel vectorized row major Int8 format"
  },
  {
    "Name": "/backbone/layer4/layer4.0/relu_2/Relu_output_0",
    "Location": "Device",
    "Dimensions": [1,2048,7,7],
    "Format/Datatype": "Thirty-two wide channel vectorized row major Int8 format"
  }],
  "Outputs": [
  {
    "Name": "/backbone/layer4/layer4.1/relu_2/Relu_output_0",
    "Location": "Device",
    "Dimensions": [1,2048,7,7],
    "Format/Datatype": "Thirty-two wide channel vectorized row major Int8 format"
  }],
  "ParameterType": "Convolution",
  "Kernel": [1,1],
  "PaddingMode": "kEXPLICIT_ROUND_DOWN",
  "PrePadding": [0,0],
  "PostPadding": [0,0],
  "Stride": [1,1],
  "Dilation": [1,1],
  "OutMaps": 2048,
  "Groups": 1,
  "Weights": {"Type": "Int8", "Count": 1048576},
  "Bias": {"Type": "Float", "Count": 2048},
  "HasSparseWeights": 0,
  "HasDynamicFilter": 0,
  "HasDynamicBias": 0,
  "HasResidual": 1,
  "ConvXAsActInputIdx": -1,
  "BiasAsActInputIdx": -1,
  "ResAsActInputIdx": -1,
  "Activation": "RELU",
  "HasBias": 1,
  "HasReLU": 1,
  "TacticName": "sm80_xmma_fprop_implicit_gemm_interleaved_i8i8_i8i32_f32_nchw_vect_c_32kcrs_vect_c_32_nchw_vect_c_32_tilesize32x64x64_stage6_warpsize2x2x1_g1_tensor16x8x32_simple_t1r1s1",
  "TacticValue": "0x31de506085a332d4",
  "StreamId": 0,
  "Metadata": "[ONNX Layer: /backbone/layer4/layer4.1/conv3/Conv]\u001e[ONNX Layer: /backbone/layer4/layer4.1/Add]\u001e[ONNX Layer: /backbone/layer4/layer4.1/relu_2/Relu]"
},{
  "Name": "/backbone/layer4/layer4.2/conv1/Conv + /backbone/layer4/layer4.2/relu/Relu",
  "LayerType": "CaskConvolution",
  "Inputs": [
  {
    "Name": "/backbone/layer4/layer4.1/relu_2/Relu_output_0",
    "Location": "Device",
    "Dimensions": [1,2048,7,7],
    "Format/Datatype": "Thirty-two wide channel vectorized row major Int8 format"
  }],
  "Outputs": [
  {
    "Name": "/backbone/layer4/layer4.2/relu/Relu_output_0",
    "Location": "Device",
    "Dimensions": [1,512,7,7],
    "Format/Datatype": "Thirty-two wide channel vectorized row major Int8 format"
  }],
  "ParameterType": "Convolution",
  "Kernel": [1,1],
  "PaddingMode": "kEXPLICIT_ROUND_DOWN",
  "PrePadding": [0,0],
  "PostPadding": [0,0],
  "Stride": [1,1],
  "Dilation": [1,1],
  "OutMaps": 512,
  "Groups": 1,
  "Weights": {"Type": "Int8", "Count": 1048576},
  "Bias": {"Type": "Float", "Count": 512},
  "HasSparseWeights": 0,
  "HasDynamicFilter": 0,
  "HasDynamicBias": 0,
  "HasResidual": 0,
  "ConvXAsActInputIdx": -1,
  "BiasAsActInputIdx": -1,
  "ResAsActInputIdx": -1,
  "Activation": "RELU",
  "HasBias": 1,
  "HasReLU": 1,
  "TacticName": "sm80_xmma_fprop_implicit_gemm_interleaved_i8i8_i8i32_f32_nchw_vect_c_32kcrs_vect_c_32_nchw_vect_c_32_tilesize32x32x64_stage6_warpsize2x1x1_g1_tensor16x8x32_simple_t1r1s1",
  "TacticValue": "0x3912ca79eb9a8be1",
  "StreamId": 0,
  "Metadata": "[ONNX Layer: /backbone/layer4/layer4.2/conv1/Conv]\u001e[ONNX Layer: /backbone/layer4/layer4.2/relu/Relu]"
},{
  "Name": "/backbone/layer4/layer4.2/conv2/Conv + /backbone/layer4/layer4.2/relu_1/Relu",
  "LayerType": "CaskConvolution",
  "Inputs": [
  {
    "Name": "/backbone/layer4/layer4.2/relu/Relu_output_0",
    "Location": "Device",
    "Dimensions": [1,512,7,7],
    "Format/Datatype": "Thirty-two wide channel vectorized row major Int8 format"
  }],
  "Outputs": [
  {
    "Name": "/backbone/layer4/layer4.2/relu_1/Relu_output_0",
    "Location": "Device",
    "Dimensions": [1,512,7,7],
    "Format/Datatype": "Thirty-two wide channel vectorized row major Int8 format"
  }],
  "ParameterType": "Convolution",
  "Kernel": [3,3],
  "PaddingMode": "kEXPLICIT_ROUND_DOWN",
  "PrePadding": [1,1],
  "PostPadding": [1,1],
  "Stride": [1,1],
  "Dilation": [1,1],
  "OutMaps": 512,
  "Groups": 1,
  "Weights": {"Type": "Int8", "Count": 2359296},
  "Bias": {"Type": "Float", "Count": 512},
  "HasSparseWeights": 0,
  "HasDynamicFilter": 0,
  "HasDynamicBias": 0,
  "HasResidual": 0,
  "ConvXAsActInputIdx": -1,
  "BiasAsActInputIdx": -1,
  "ResAsActInputIdx": -1,
  "Activation": "RELU",
  "HasBias": 1,
  "HasReLU": 1,
  "TacticName": "sm80_xmma_fprop_implicit_gemm_interleaved_i8i8_i8i32_f32_nchw_vect_c_32kcrs_vect_c_32_nchw_vect_c_32_tilesize32x32x64_stage6_warpsize2x1x1_g1_tensor16x8x32_t1r3s3",
  "TacticValue": "0x4749124f62d8bd23",
  "StreamId": 0,
  "Metadata": "[ONNX Layer: /backbone/layer4/layer4.2/conv2/Conv]\u001e[ONNX Layer: /backbone/layer4/layer4.2/relu_1/Relu]"
},{
  "Name": "/backbone/layer4/layer4.2/conv3/Conv + /backbone/layer4/layer4.2/Add + /backbone/layer4/layer4.2/relu_2/Relu",
  "LayerType": "CaskConvolution",
  "Inputs": [
  {
    "Name": "/backbone/layer4/layer4.2/relu_1/Relu_output_0",
    "Location": "Device",
    "Dimensions": [1,512,7,7],
    "Format/Datatype": "Thirty-two wide channel vectorized row major Int8 format"
  },
  {
    "Name": "/backbone/layer4/layer4.1/relu_2/Relu_output_0",
    "Location": "Device",
    "Dimensions": [1,2048,7,7],
    "Format/Datatype": "Thirty-two wide channel vectorized row major Int8 format"
  }],
  "Outputs": [
  {
    "Name": "/backbone/layer4/layer4.2/relu_2/Relu_output_0",
    "Location": "Device",
    "Dimensions": [1,2048,7,7],
    "Format/Datatype": "Thirty-two wide channel vectorized row major Int8 format"
  }],
  "ParameterType": "Convolution",
  "Kernel": [1,1],
  "PaddingMode": "kEXPLICIT_ROUND_DOWN",
  "PrePadding": [0,0],
  "PostPadding": [0,0],
  "Stride": [1,1],
  "Dilation": [1,1],
  "OutMaps": 2048,
  "Groups": 1,
  "Weights": {"Type": "Int8", "Count": 1048576},
  "Bias": {"Type": "Float", "Count": 2048},
  "HasSparseWeights": 0,
  "HasDynamicFilter": 0,
  "HasDynamicBias": 0,
  "HasResidual": 1,
  "ConvXAsActInputIdx": -1,
  "BiasAsActInputIdx": -1,
  "ResAsActInputIdx": -1,
  "Activation": "RELU",
  "HasBias": 1,
  "HasReLU": 1,
  "TacticName": "sm80_xmma_fprop_implicit_gemm_interleaved_i8i8_i8i32_f32_nchw_vect_c_32kcrs_vect_c_32_nchw_vect_c_32_tilesize32x64x64_stage6_warpsize2x2x1_g1_tensor16x8x32_simple_t1r1s1",
  "TacticValue": "0x31de506085a332d4",
  "StreamId": 0,
  "Metadata": "[ONNX Layer: /backbone/layer4/layer4.2/conv3/Conv]\u001e[ONNX Layer: /backbone/layer4/layer4.2/Add]\u001e[ONNX Layer: /backbone/layer4/layer4.2/relu_2/Relu]"
},{
  "Name": "/backbone/avgpool/GlobalAveragePool",
  "LayerType": "CaskPooling",
  "Inputs": [
  {
    "Name": "/backbone/layer4/layer4.2/relu_2/Relu_output_0",
    "Location": "Device",
    "Dimensions": [1,2048,7,7],
    "Format/Datatype": "Thirty-two wide channel vectorized row major Int8 format"
  }],
  "Outputs": [
  {
    "Name": "/backbone/avgpool/GlobalAveragePool_output_0",
    "Location": "Device",
    "Dimensions": [1,2048,1,1],
    "Format/Datatype": "Thirty-two wide channel vectorized row major Int8 format"
  }],
  "ParameterType": "Pooling",
  "PoolingType": "AVERAGE",
  "WindowSize": [7,7],
  "PaddingMode": "kEXPLICIT_ROUND_DOWN",
  "PrePadding": [0,0],
  "PostPadding": [0,0],
  "Stride": [1,1],
  "BlendFactor": 0,
  "AverageCountExcludesPadding": 1,
  "TacticName": "sm72_xmma_pooling_IMMA_NCxHW32_gap",
  "TacticValue": "0xa3a1a62d21de759d",
  "StreamId": 0,
  "Metadata": "[ONNX Layer: /backbone/avgpool/GlobalAveragePool]"
},{
  "Name": "Reformatting CopyNode for Input Tensor 0 to /backbone/fc/Gemm",
  "LayerType": "NoOp",
  "Inputs": [
  {
    "Name": "/backbone/avgpool/GlobalAveragePool_output_0",
    "Location": "Device",
    "Dimensions": [1,2048,1,1],
    "Format/Datatype": "Thirty-two wide channel vectorized row major Int8 format"
  }],
  "Outputs": [
  {
    "Name": "Reformatted Input Tensor 0 to /backbone/fc/Gemm",
    "Location": "Device",
    "Dimensions": [1,2048,1,1],
    "Format/Datatype": "Four wide channel vectorized row major Int8 format"
  }],
  "TacticValue": "0x0000000000000000",
  "StreamId": 0,
  "Metadata": ""
},{
  "Name": "/backbone/fc/Gemm",
  "LayerType": "CaskConvolution",
  "Inputs": [
  {
    "Name": "Reformatted Input Tensor 0 to /backbone/fc/Gemm",
    "Location": "Device",
    "Dimensions": [1,2048,1,1],
    "Format/Datatype": "Four wide channel vectorized row major Int8 format"
  }],
  "Outputs": [
  {
    "Name": "/backbone/fc/Gemm_out_tensor",
    "Location": "Device",
    "Dimensions": [1,1000,1,1],
    "Format/Datatype": "Row major linear FP32"
  }],
  "ParameterType": "Convolution",
  "Kernel": [1,1],
  "PaddingMode": "kEXPLICIT_ROUND_DOWN",
  "PrePadding": [0,0],
  "PostPadding": [0,0],
  "Stride": [1,1],
  "Dilation": [1,1],
  "OutMaps": 1000,
  "Groups": 1,
  "Weights": {"Type": "Int8", "Count": 2048000},
  "Bias": {"Type": "Float", "Count": 1000},
  "HasSparseWeights": 0,
  "HasDynamicFilter": 0,
  "HasDynamicBias": 0,
  "HasResidual": 0,
  "ConvXAsActInputIdx": -1,
  "BiasAsActInputIdx": -1,
  "ResAsActInputIdx": -1,
  "Activation": "NONE",
  "HasBias": 1,
  "HasReLU": 0,
  "TacticName": "sm70_xmma_fprop_conv1x1_i8f32_f32_f32_nchw_vect_c_4kcrs_vect_c_4_nchw_simt_small_batch_bias_relu",
  "TacticValue": "0xc073b0053ce90eac",
  "StreamId": 0,
  "Metadata": "[ONNX Layer: /backbone/fc/Gemm]"
},{
  "Name": "reshape_after_/backbone/fc/Gemm",
  "LayerType": "NoOp",
  "Inputs": [
  {
    "Name": "/backbone/fc/Gemm_out_tensor",
    "Location": "Device",
    "Dimensions": [1,1000,1,1],
    "Format/Datatype": "Row major linear FP32"
  }],
  "Outputs": [
  {
    "Name": "/backbone/fc/Gemm_output_0",
    "Location": "Device",
    "Dimensions": [1,1000],
    "Format/Datatype": "Row major linear FP32"
  }],
  "TacticValue": "0x0000000000000000",
  "StreamId": 0,
  "Metadata": "[ONNX Layer: /backbone/fc/Gemm]"
},{
  "Name": "/softmax/Softmax",
  "LayerType": "CaskSoftMaxV2",
  "Inputs": [
  {
    "Name": "/backbone/fc/Gemm_output_0",
    "Location": "Device",
    "Dimensions": [1,1000],
    "Format/Datatype": "Row major linear FP32"
  }],
  "Outputs": [
  {
    "Name": "output0",
    "Location": "Device",
    "Dimensions": [1,1000],
    "Format/Datatype": "Row major linear FP32"
  }],
  "ParameterType": "SoftMax",
  "Axes": 2,
  "HasLog": 0,
  "TacticValue": "0x6d55c70c4c781969",
  "StreamId": 0,
  "Metadata": "[ONNX Layer: /softmax/Softmax]"
}],
"Bindings": ["input0"
,"output0"
]}
