{"Layers": [{
  "Name": "/conv1/Conv + /relu/Relu",
  "LayerType": "CaskConvolution",
  "Inputs": [
  {
    "Name": "input0",
    "Location": "Device",
    "Dimensions": [1,3,224,224],
    "Format/Datatype": "Row major linear FP32"
  }],
  "Outputs": [
  {
    "Name": "/relu/Relu_output_0",
    "Location": "Device",
    "Dimensions": [1,64,112,112],
    "Format/Datatype": "Row major linear FP32"
  }],
  "ParameterType": "Convolution",
  "Kernel": [7,7],
  "PaddingMode": "kEXPLICIT_ROUND_DOWN",
  "PrePadding": [3,3],
  "PostPadding": [3,3],
  "Stride": [2,2],
  "Dilation": [1,1],
  "OutMaps": 64,
  "Groups": 1,
  "Weights": {"Type": "Float", "Count": 9408},
  "Bias": {"Type": "Float", "Count": 64},
  "HasSparseWeights": 0,
  "HasDynamicFilter": 0,
  "HasDynamicBias": 0,
  "HasResidual": 0,
  "ConvXAsActInputIdx": -1,
  "BiasAsActInputIdx": -1,
  "ResAsActInputIdx": -1,
  "Activation": "RELU",
  "HasBias": 1,
  "HasReLU": 1,
  "TacticName": "ampere_scudnn_128x64_relu_xregs_large_nn_v1",
  "TacticValue": "0x5deb29b7a8e275f7"
},{
  "Name": "/maxpool/MaxPool",
  "LayerType": "CaskPooling",
  "Inputs": [
  {
    "Name": "/relu/Relu_output_0",
    "Location": "Device",
    "Dimensions": [1,64,112,112],
    "Format/Datatype": "Row major linear FP32"
  }],
  "Outputs": [
  {
    "Name": "/maxpool/MaxPool_output_0",
    "Location": "Device",
    "Dimensions": [1,64,56,56],
    "Format/Datatype": "Row major linear FP32"
  }],
  "ParameterType": "Pooling",
  "PoolingType": "MAX",
  "WindowSize": [3,3],
  "PaddingMode": "kEXPLICIT_ROUND_DOWN",
  "PrePadding": [1,1],
  "PostPadding": [1,1],
  "Stride": [2,2],
  "BlendFactor": 0,
  "AverageCountExcludesPadding": 1,
  "TacticName": "sm50_xmma_pooling_tiled_FP32NCHW_kMAX_tP7_tQ8_tR3_tS3_tU2_tV2_tUnroll4_tThreads255",
  "TacticValue": "0xfcb5fcaa68fff7ac"
},{
  "Name": "/layer1/layer1.0/conv1/Conv + /layer1/layer1.0/relu/Relu",
  "LayerType": "CaskConvolution",
  "Inputs": [
  {
    "Name": "/maxpool/MaxPool_output_0",
    "Location": "Device",
    "Dimensions": [1,64,56,56],
    "Format/Datatype": "Row major linear FP32"
  }],
  "Outputs": [
  {
    "Name": "/layer1/layer1.0/relu/Relu_output_0",
    "Location": "Device",
    "Dimensions": [1,64,56,56],
    "Format/Datatype": "Row major linear FP32"
  }],
  "ParameterType": "Convolution",
  "Kernel": [1,1],
  "PaddingMode": "kEXPLICIT_ROUND_DOWN",
  "PrePadding": [0,0],
  "PostPadding": [0,0],
  "Stride": [1,1],
  "Dilation": [1,1],
  "OutMaps": 64,
  "Groups": 1,
  "Weights": {"Type": "Float", "Count": 4096},
  "Bias": {"Type": "Float", "Count": 64},
  "HasSparseWeights": 0,
  "HasDynamicFilter": 0,
  "HasDynamicBias": 0,
  "HasResidual": 0,
  "ConvXAsActInputIdx": -1,
  "BiasAsActInputIdx": -1,
  "ResAsActInputIdx": -1,
  "Activation": "RELU",
  "HasBias": 1,
  "HasReLU": 1,
  "TacticName": "sm80_xmma_fprop_implicit_gemm_f32f32_f32f32_f32_nchwkcrs_nchw_tilesize64x64x8_stage3_warpsize1x4x1_g1_ffma_aligna4_alignc4",
  "TacticValue": "0xa31d27de74b895ff"
},{
  "Name": "/layer1/layer1.0/conv2/Conv + /layer1/layer1.0/relu_1/Relu",
  "LayerType": "CaskConvolution",
  "Inputs": [
  {
    "Name": "/layer1/layer1.0/relu/Relu_output_0",
    "Location": "Device",
    "Dimensions": [1,64,56,56],
    "Format/Datatype": "Row major linear FP32"
  }],
  "Outputs": [
  {
    "Name": "/layer1/layer1.0/relu_1/Relu_output_0",
    "Location": "Device",
    "Dimensions": [1,64,56,56],
    "Format/Datatype": "Row major linear FP32"
  }],
  "ParameterType": "Convolution",
  "Kernel": [3,3],
  "PaddingMode": "kEXPLICIT_ROUND_DOWN",
  "PrePadding": [1,1],
  "PostPadding": [1,1],
  "Stride": [1,1],
  "Dilation": [1,1],
  "OutMaps": 64,
  "Groups": 1,
  "Weights": {"Type": "Float", "Count": 36864},
  "Bias": {"Type": "Float", "Count": 64},
  "HasSparseWeights": 0,
  "HasDynamicFilter": 0,
  "HasDynamicBias": 0,
  "HasResidual": 0,
  "ConvXAsActInputIdx": -1,
  "BiasAsActInputIdx": -1,
  "ResAsActInputIdx": -1,
  "Activation": "RELU",
  "HasBias": 1,
  "HasReLU": 1,
  "TacticName": "ampere_scudnn_winograd_128x128_ldg1_ldg4_relu_tile148t_nt_v1",
  "TacticValue": "0x94119b4c514b211a"
},{
  "Name": "/layer1/layer1.0/downsample/downsample.0/Conv",
  "LayerType": "CaskConvolution",
  "Inputs": [
  {
    "Name": "/maxpool/MaxPool_output_0",
    "Location": "Device",
    "Dimensions": [1,64,56,56],
    "Format/Datatype": "Row major linear FP32"
  }],
  "Outputs": [
  {
    "Name": "/layer1/layer1.0/downsample/downsample.0/Conv_output_0",
    "Location": "Device",
    "Dimensions": [1,256,56,56],
    "Format/Datatype": "Row major linear FP32"
  }],
  "ParameterType": "Convolution",
  "Kernel": [1,1],
  "PaddingMode": "kEXPLICIT_ROUND_DOWN",
  "PrePadding": [0,0],
  "PostPadding": [0,0],
  "Stride": [1,1],
  "Dilation": [1,1],
  "OutMaps": 256,
  "Groups": 1,
  "Weights": {"Type": "Float", "Count": 16384},
  "Bias": {"Type": "Float", "Count": 256},
  "HasSparseWeights": 0,
  "HasDynamicFilter": 0,
  "HasDynamicBias": 0,
  "HasResidual": 0,
  "ConvXAsActInputIdx": -1,
  "BiasAsActInputIdx": -1,
  "ResAsActInputIdx": -1,
  "Activation": "NONE",
  "HasBias": 1,
  "HasReLU": 0,
  "TacticName": "sm80_xmma_fprop_implicit_gemm_f32f32_f32f32_f32_nchwkcrs_nchw_tilesize64x64x8_stage3_warpsize1x4x1_g1_ffma_simple_t1r1s1_aligna4_alignc4",
  "TacticValue": "0x1fc87d7eb370bb7a"
},{
  "Name": "/layer1/layer1.0/conv3/Conv + /layer1/layer1.0/Add + /layer1/layer1.0/relu_2/Relu",
  "LayerType": "CaskConvolution",
  "Inputs": [
  {
    "Name": "/layer1/layer1.0/relu_1/Relu_output_0",
    "Location": "Device",
    "Dimensions": [1,64,56,56],
    "Format/Datatype": "Row major linear FP32"
  },
  {
    "Name": "/layer1/layer1.0/downsample/downsample.0/Conv_output_0",
    "Location": "Device",
    "Dimensions": [1,256,56,56],
    "Format/Datatype": "Row major linear FP32"
  }],
  "Outputs": [
  {
    "Name": "/layer1/layer1.0/relu_2/Relu_output_0",
    "Location": "Device",
    "Dimensions": [1,256,56,56],
    "Format/Datatype": "Row major linear FP32"
  }],
  "ParameterType": "Convolution",
  "Kernel": [1,1],
  "PaddingMode": "kEXPLICIT_ROUND_DOWN",
  "PrePadding": [0,0],
  "PostPadding": [0,0],
  "Stride": [1,1],
  "Dilation": [1,1],
  "OutMaps": 256,
  "Groups": 1,
  "Weights": {"Type": "Float", "Count": 16384},
  "Bias": {"Type": "Float", "Count": 256},
  "HasSparseWeights": 0,
  "HasDynamicFilter": 0,
  "HasDynamicBias": 0,
  "HasResidual": 1,
  "ConvXAsActInputIdx": -1,
  "BiasAsActInputIdx": -1,
  "ResAsActInputIdx": -1,
  "Activation": "RELU",
  "HasBias": 1,
  "HasReLU": 1,
  "TacticName": "sm80_xmma_fprop_implicit_gemm_f32f32_f32f32_f32_nchwkcrs_nchw_tilesize64x64x8_stage3_warpsize1x4x1_g1_ffma_t1r1s1_aligna4_alignc4",
  "TacticValue": "0x865894c4635db7fd"
},{
  "Name": "/layer1/layer1.1/conv1/Conv + /layer1/layer1.1/relu/Relu",
  "LayerType": "CaskConvolution",
  "Inputs": [
  {
    "Name": "/layer1/layer1.0/relu_2/Relu_output_0",
    "Location": "Device",
    "Dimensions": [1,256,56,56],
    "Format/Datatype": "Row major linear FP32"
  }],
  "Outputs": [
  {
    "Name": "/layer1/layer1.1/relu/Relu_output_0",
    "Location": "Device",
    "Dimensions": [1,64,56,56],
    "Format/Datatype": "Row major linear FP32"
  }],
  "ParameterType": "Convolution",
  "Kernel": [1,1],
  "PaddingMode": "kEXPLICIT_ROUND_DOWN",
  "PrePadding": [0,0],
  "PostPadding": [0,0],
  "Stride": [1,1],
  "Dilation": [1,1],
  "OutMaps": 64,
  "Groups": 1,
  "Weights": {"Type": "Float", "Count": 16384},
  "Bias": {"Type": "Float", "Count": 64},
  "HasSparseWeights": 0,
  "HasDynamicFilter": 0,
  "HasDynamicBias": 0,
  "HasResidual": 0,
  "ConvXAsActInputIdx": -1,
  "BiasAsActInputIdx": -1,
  "ResAsActInputIdx": -1,
  "Activation": "RELU",
  "HasBias": 1,
  "HasReLU": 1,
  "TacticName": "sm80_xmma_fprop_implicit_gemm_f32f32_f32f32_f32_nchwkcrs_nchw_tilesize64x64x8_stage3_warpsize1x4x1_g1_ffma_aligna4_alignc4",
  "TacticValue": "0xa31d27de74b895ff"
},{
  "Name": "/layer1/layer1.1/conv2/Conv + /layer1/layer1.1/relu_1/Relu",
  "LayerType": "CaskConvolution",
  "Inputs": [
  {
    "Name": "/layer1/layer1.1/relu/Relu_output_0",
    "Location": "Device",
    "Dimensions": [1,64,56,56],
    "Format/Datatype": "Row major linear FP32"
  }],
  "Outputs": [
  {
    "Name": "/layer1/layer1.1/relu_1/Relu_output_0",
    "Location": "Device",
    "Dimensions": [1,64,56,56],
    "Format/Datatype": "Row major linear FP32"
  }],
  "ParameterType": "Convolution",
  "Kernel": [3,3],
  "PaddingMode": "kEXPLICIT_ROUND_DOWN",
  "PrePadding": [1,1],
  "PostPadding": [1,1],
  "Stride": [1,1],
  "Dilation": [1,1],
  "OutMaps": 64,
  "Groups": 1,
  "Weights": {"Type": "Float", "Count": 36864},
  "Bias": {"Type": "Float", "Count": 64},
  "HasSparseWeights": 0,
  "HasDynamicFilter": 0,
  "HasDynamicBias": 0,
  "HasResidual": 0,
  "ConvXAsActInputIdx": -1,
  "BiasAsActInputIdx": -1,
  "ResAsActInputIdx": -1,
  "Activation": "RELU",
  "HasBias": 1,
  "HasReLU": 1,
  "TacticName": "ampere_scudnn_winograd_128x128_ldg1_ldg4_relu_tile148t_nt_v1",
  "TacticValue": "0x94119b4c514b211a"
},{
  "Name": "/layer1/layer1.1/conv3/Conv + /layer1/layer1.1/Add + /layer1/layer1.1/relu_2/Relu",
  "LayerType": "CaskConvolution",
  "Inputs": [
  {
    "Name": "/layer1/layer1.1/relu_1/Relu_output_0",
    "Location": "Device",
    "Dimensions": [1,64,56,56],
    "Format/Datatype": "Row major linear FP32"
  },
  {
    "Name": "/layer1/layer1.0/relu_2/Relu_output_0",
    "Location": "Device",
    "Dimensions": [1,256,56,56],
    "Format/Datatype": "Row major linear FP32"
  }],
  "Outputs": [
  {
    "Name": "/layer1/layer1.1/relu_2/Relu_output_0",
    "Location": "Device",
    "Dimensions": [1,256,56,56],
    "Format/Datatype": "Row major linear FP32"
  }],
  "ParameterType": "Convolution",
  "Kernel": [1,1],
  "PaddingMode": "kEXPLICIT_ROUND_DOWN",
  "PrePadding": [0,0],
  "PostPadding": [0,0],
  "Stride": [1,1],
  "Dilation": [1,1],
  "OutMaps": 256,
  "Groups": 1,
  "Weights": {"Type": "Float", "Count": 16384},
  "Bias": {"Type": "Float", "Count": 256},
  "HasSparseWeights": 0,
  "HasDynamicFilter": 0,
  "HasDynamicBias": 0,
  "HasResidual": 1,
  "ConvXAsActInputIdx": -1,
  "BiasAsActInputIdx": -1,
  "ResAsActInputIdx": -1,
  "Activation": "RELU",
  "HasBias": 1,
  "HasReLU": 1,
  "TacticName": "sm80_xmma_fprop_implicit_gemm_f32f32_f32f32_f32_nchwkcrs_nchw_tilesize64x64x8_stage3_warpsize1x4x1_g1_ffma_t1r1s1_aligna4_alignc4",
  "TacticValue": "0x865894c4635db7fd"
},{
  "Name": "/layer1/layer1.2/conv1/Conv + /layer1/layer1.2/relu/Relu",
  "LayerType": "CaskConvolution",
  "Inputs": [
  {
    "Name": "/layer1/layer1.1/relu_2/Relu_output_0",
    "Location": "Device",
    "Dimensions": [1,256,56,56],
    "Format/Datatype": "Row major linear FP32"
  }],
  "Outputs": [
  {
    "Name": "/layer1/layer1.2/relu/Relu_output_0",
    "Location": "Device",
    "Dimensions": [1,64,56,56],
    "Format/Datatype": "Row major linear FP32"
  }],
  "ParameterType": "Convolution",
  "Kernel": [1,1],
  "PaddingMode": "kEXPLICIT_ROUND_DOWN",
  "PrePadding": [0,0],
  "PostPadding": [0,0],
  "Stride": [1,1],
  "Dilation": [1,1],
  "OutMaps": 64,
  "Groups": 1,
  "Weights": {"Type": "Float", "Count": 16384},
  "Bias": {"Type": "Float", "Count": 64},
  "HasSparseWeights": 0,
  "HasDynamicFilter": 0,
  "HasDynamicBias": 0,
  "HasResidual": 0,
  "ConvXAsActInputIdx": -1,
  "BiasAsActInputIdx": -1,
  "ResAsActInputIdx": -1,
  "Activation": "RELU",
  "HasBias": 1,
  "HasReLU": 1,
  "TacticName": "sm80_xmma_fprop_implicit_gemm_f32f32_f32f32_f32_nchwkcrs_nchw_tilesize64x64x8_stage3_warpsize1x4x1_g1_ffma_aligna4_alignc4",
  "TacticValue": "0xa31d27de74b895ff"
},{
  "Name": "/layer1/layer1.2/conv2/Conv + /layer1/layer1.2/relu_1/Relu",
  "LayerType": "CaskConvolution",
  "Inputs": [
  {
    "Name": "/layer1/layer1.2/relu/Relu_output_0",
    "Location": "Device",
    "Dimensions": [1,64,56,56],
    "Format/Datatype": "Row major linear FP32"
  }],
  "Outputs": [
  {
    "Name": "/layer1/layer1.2/relu_1/Relu_output_0",
    "Location": "Device",
    "Dimensions": [1,64,56,56],
    "Format/Datatype": "Row major linear FP32"
  }],
  "ParameterType": "Convolution",
  "Kernel": [3,3],
  "PaddingMode": "kEXPLICIT_ROUND_DOWN",
  "PrePadding": [1,1],
  "PostPadding": [1,1],
  "Stride": [1,1],
  "Dilation": [1,1],
  "OutMaps": 64,
  "Groups": 1,
  "Weights": {"Type": "Float", "Count": 36864},
  "Bias": {"Type": "Float", "Count": 64},
  "HasSparseWeights": 0,
  "HasDynamicFilter": 0,
  "HasDynamicBias": 0,
  "HasResidual": 0,
  "ConvXAsActInputIdx": -1,
  "BiasAsActInputIdx": -1,
  "ResAsActInputIdx": -1,
  "Activation": "RELU",
  "HasBias": 1,
  "HasReLU": 1,
  "TacticName": "ampere_scudnn_winograd_128x128_ldg1_ldg4_relu_tile148t_nt_v1",
  "TacticValue": "0x94119b4c514b211a"
},{
  "Name": "/layer1/layer1.2/conv3/Conv + /layer1/layer1.2/Add + /layer1/layer1.2/relu_2/Relu",
  "LayerType": "CaskConvolution",
  "Inputs": [
  {
    "Name": "/layer1/layer1.2/relu_1/Relu_output_0",
    "Location": "Device",
    "Dimensions": [1,64,56,56],
    "Format/Datatype": "Row major linear FP32"
  },
  {
    "Name": "/layer1/layer1.1/relu_2/Relu_output_0",
    "Location": "Device",
    "Dimensions": [1,256,56,56],
    "Format/Datatype": "Row major linear FP32"
  }],
  "Outputs": [
  {
    "Name": "/layer1/layer1.2/relu_2/Relu_output_0",
    "Location": "Device",
    "Dimensions": [1,256,56,56],
    "Format/Datatype": "Row major linear FP32"
  }],
  "ParameterType": "Convolution",
  "Kernel": [1,1],
  "PaddingMode": "kEXPLICIT_ROUND_DOWN",
  "PrePadding": [0,0],
  "PostPadding": [0,0],
  "Stride": [1,1],
  "Dilation": [1,1],
  "OutMaps": 256,
  "Groups": 1,
  "Weights": {"Type": "Float", "Count": 16384},
  "Bias": {"Type": "Float", "Count": 256},
  "HasSparseWeights": 0,
  "HasDynamicFilter": 0,
  "HasDynamicBias": 0,
  "HasResidual": 1,
  "ConvXAsActInputIdx": -1,
  "BiasAsActInputIdx": -1,
  "ResAsActInputIdx": -1,
  "Activation": "RELU",
  "HasBias": 1,
  "HasReLU": 1,
  "TacticName": "sm80_xmma_fprop_implicit_gemm_f32f32_f32f32_f32_nchwkcrs_nchw_tilesize64x64x8_stage3_warpsize1x4x1_g1_ffma_t1r1s1_aligna4_alignc4",
  "TacticValue": "0x865894c4635db7fd"
},{
  "Name": "/layer2/layer2.0/conv1/Conv + /layer2/layer2.0/relu/Relu",
  "LayerType": "CudnnConvolution",
  "Inputs": [
  {
    "Name": "/layer1/layer1.2/relu_2/Relu_output_0",
    "Location": "Device",
    "Dimensions": [1,256,56,56],
    "Format/Datatype": "Row major linear FP32"
  }],
  "Outputs": [
  {
    "Name": "/layer2/layer2.0/relu/Relu_output_0",
    "Location": "Device",
    "Dimensions": [1,128,56,56],
    "Format/Datatype": "Row major linear FP32"
  }],
  "ParameterType": "Convolution",
  "Kernel": [1,1],
  "PaddingMode": "kEXPLICIT_ROUND_DOWN",
  "PrePadding": [0,0],
  "PostPadding": [0,0],
  "Stride": [1,1],
  "Dilation": [1,1],
  "OutMaps": 128,
  "Groups": 1,
  "Weights": {"Type": "Float", "Count": 32768},
  "Bias": {"Type": "Float", "Count": 128},
  "HasSparseWeights": 0,
  "HasDynamicFilter": 0,
  "HasDynamicBias": 0,
  "HasResidual": 0,
  "ConvXAsActInputIdx": -1,
  "BiasAsActInputIdx": -1,
  "ResAsActInputIdx": -1,
  "Activation": "RELU",
  "HasBias": 1,
  "TacticValue": "0x0000000000000001"
},{
  "Name": "/layer2/layer2.0/conv2/Conv + /layer2/layer2.0/relu_1/Relu",
  "LayerType": "CudnnConvolution",
  "Inputs": [
  {
    "Name": "/layer2/layer2.0/relu/Relu_output_0",
    "Location": "Device",
    "Dimensions": [1,128,56,56],
    "Format/Datatype": "Row major linear FP32"
  }],
  "Outputs": [
  {
    "Name": "/layer2/layer2.0/relu_1/Relu_output_0",
    "Location": "Device",
    "Dimensions": [1,128,28,28],
    "Format/Datatype": "Row major linear FP32"
  }],
  "ParameterType": "Convolution",
  "Kernel": [3,3],
  "PaddingMode": "kEXPLICIT_ROUND_DOWN",
  "PrePadding": [1,1],
  "PostPadding": [1,1],
  "Stride": [2,2],
  "Dilation": [1,1],
  "OutMaps": 128,
  "Groups": 1,
  "Weights": {"Type": "Float", "Count": 147456},
  "Bias": {"Type": "Float", "Count": 128},
  "HasSparseWeights": 0,
  "HasDynamicFilter": 0,
  "HasDynamicBias": 0,
  "HasResidual": 0,
  "ConvXAsActInputIdx": -1,
  "BiasAsActInputIdx": -1,
  "ResAsActInputIdx": -1,
  "Activation": "RELU",
  "HasBias": 1,
  "TacticValue": "0x0000000000000001"
},{
  "Name": "/layer2/layer2.0/downsample/downsample.0/Conv",
  "LayerType": "CaskConvolution",
  "Inputs": [
  {
    "Name": "/layer1/layer1.2/relu_2/Relu_output_0",
    "Location": "Device",
    "Dimensions": [1,256,56,56],
    "Format/Datatype": "Row major linear FP32"
  }],
  "Outputs": [
  {
    "Name": "/layer2/layer2.0/downsample/downsample.0/Conv_output_0",
    "Location": "Device",
    "Dimensions": [1,512,28,28],
    "Format/Datatype": "Row major linear FP32"
  }],
  "ParameterType": "Convolution",
  "Kernel": [1,1],
  "PaddingMode": "kEXPLICIT_ROUND_DOWN",
  "PrePadding": [0,0],
  "PostPadding": [0,0],
  "Stride": [2,2],
  "Dilation": [1,1],
  "OutMaps": 512,
  "Groups": 1,
  "Weights": {"Type": "Float", "Count": 131072},
  "Bias": {"Type": "Float", "Count": 512},
  "HasSparseWeights": 0,
  "HasDynamicFilter": 0,
  "HasDynamicBias": 0,
  "HasResidual": 0,
  "ConvXAsActInputIdx": -1,
  "BiasAsActInputIdx": -1,
  "ResAsActInputIdx": -1,
  "Activation": "NONE",
  "HasBias": 1,
  "HasReLU": 0,
  "TacticName": "sm80_xmma_fprop_implicit_gemm_f32f32_f32f32_f32_nchwkcrs_nchw_tilesize64x128x8_stage3_warpsize1x4x1_g1_ffma_t1r1s1_aligna4_alignc4",
  "TacticValue": "0xc0b05b61d128e46e"
},{
  "Name": "/layer2/layer2.0/conv3/Conv + /layer2/layer2.0/Add + /layer2/layer2.0/relu_2/Relu",
  "LayerType": "CaskConvolution",
  "Inputs": [
  {
    "Name": "/layer2/layer2.0/relu_1/Relu_output_0",
    "Location": "Device",
    "Dimensions": [1,128,28,28],
    "Format/Datatype": "Row major linear FP32"
  },
  {
    "Name": "/layer2/layer2.0/downsample/downsample.0/Conv_output_0",
    "Location": "Device",
    "Dimensions": [1,512,28,28],
    "Format/Datatype": "Row major linear FP32"
  }],
  "Outputs": [
  {
    "Name": "/layer2/layer2.0/relu_2/Relu_output_0",
    "Location": "Device",
    "Dimensions": [1,512,28,28],
    "Format/Datatype": "Row major linear FP32"
  }],
  "ParameterType": "Convolution",
  "Kernel": [1,1],
  "PaddingMode": "kEXPLICIT_ROUND_DOWN",
  "PrePadding": [0,0],
  "PostPadding": [0,0],
  "Stride": [1,1],
  "Dilation": [1,1],
  "OutMaps": 512,
  "Groups": 1,
  "Weights": {"Type": "Float", "Count": 65536},
  "Bias": {"Type": "Float", "Count": 512},
  "HasSparseWeights": 0,
  "HasDynamicFilter": 0,
  "HasDynamicBias": 0,
  "HasResidual": 1,
  "ConvXAsActInputIdx": -1,
  "BiasAsActInputIdx": -1,
  "ResAsActInputIdx": -1,
  "Activation": "RELU",
  "HasBias": 1,
  "HasReLU": 1,
  "TacticName": "sm80_xmma_fprop_implicit_gemm_f32f32_f32f32_f32_nchwkcrs_nchw_tilesize64x64x8_stage3_warpsize1x4x1_g1_ffma_simple_t1r1s1_aligna4_alignc4",
  "TacticValue": "0x1fc87d7eb370bb7a"
},{
  "Name": "/layer2/layer2.1/conv1/Conv + /layer2/layer2.1/relu/Relu",
  "LayerType": "FusedConvActConvolution",
  "Inputs": [
  {
    "Name": "/layer2/layer2.0/relu_2/Relu_output_0",
    "Location": "Device",
    "Dimensions": [1,512,28,28],
    "Format/Datatype": "Row major linear FP32"
  }],
  "Outputs": [
  {
    "Name": "/layer2/layer2.1/relu/Relu_output_0",
    "Location": "Device",
    "Dimensions": [1,128,28,28],
    "Format/Datatype": "Row major linear FP32"
  }],
  "ParameterType": "Convolution",
  "Kernel": [1,1],
  "PaddingMode": "kEXPLICIT_ROUND_DOWN",
  "PrePadding": [0,0],
  "PostPadding": [0,0],
  "Stride": [1,1],
  "Dilation": [1,1],
  "OutMaps": 128,
  "Groups": 1,
  "Weights": {"Type": "Float", "Count": 65536},
  "Bias": {"Type": "Float", "Count": 128},
  "HasSparseWeights": 0,
  "HasDynamicFilter": 0,
  "HasDynamicBias": 0,
  "HasResidual": 0,
  "ConvXAsActInputIdx": -1,
  "BiasAsActInputIdx": -1,
  "ResAsActInputIdx": -1,
  "Activation": "RELU",
  "HasBias": 1,
  "ConvolutionTacticIndex": 89,
  "TacticValue": "0x000000000059ffff"
},{
  "Name": "/layer2/layer2.1/conv2/Conv + /layer2/layer2.1/relu_1/Relu",
  "LayerType": "FusedConvActConvolution",
  "Inputs": [
  {
    "Name": "/layer2/layer2.1/relu/Relu_output_0",
    "Location": "Device",
    "Dimensions": [1,128,28,28],
    "Format/Datatype": "Row major linear FP32"
  }],
  "Outputs": [
  {
    "Name": "/layer2/layer2.1/relu_1/Relu_output_0",
    "Location": "Device",
    "Dimensions": [1,128,28,28],
    "Format/Datatype": "Row major linear FP32"
  }],
  "ParameterType": "Convolution",
  "Kernel": [3,3],
  "PaddingMode": "kEXPLICIT_ROUND_DOWN",
  "PrePadding": [1,1],
  "PostPadding": [1,1],
  "Stride": [1,1],
  "Dilation": [1,1],
  "OutMaps": 128,
  "Groups": 1,
  "Weights": {"Type": "Float", "Count": 147456},
  "Bias": {"Type": "Float", "Count": 128},
  "HasSparseWeights": 0,
  "HasDynamicFilter": 0,
  "HasDynamicBias": 0,
  "HasResidual": 0,
  "ConvXAsActInputIdx": -1,
  "BiasAsActInputIdx": -1,
  "ResAsActInputIdx": -1,
  "Activation": "RELU",
  "HasBias": 1,
  "ConvolutionTacticIndex": 134,
  "TacticValue": "0x000000000086ffff"
},{
  "Name": "/layer2/layer2.1/conv3/Conv + /layer2/layer2.1/Add + /layer2/layer2.1/relu_2/Relu",
  "LayerType": "CaskConvolution",
  "Inputs": [
  {
    "Name": "/layer2/layer2.1/relu_1/Relu_output_0",
    "Location": "Device",
    "Dimensions": [1,128,28,28],
    "Format/Datatype": "Row major linear FP32"
  },
  {
    "Name": "/layer2/layer2.0/relu_2/Relu_output_0",
    "Location": "Device",
    "Dimensions": [1,512,28,28],
    "Format/Datatype": "Row major linear FP32"
  }],
  "Outputs": [
  {
    "Name": "/layer2/layer2.1/relu_2/Relu_output_0",
    "Location": "Device",
    "Dimensions": [1,512,28,28],
    "Format/Datatype": "Row major linear FP32"
  }],
  "ParameterType": "Convolution",
  "Kernel": [1,1],
  "PaddingMode": "kEXPLICIT_ROUND_DOWN",
  "PrePadding": [0,0],
  "PostPadding": [0,0],
  "Stride": [1,1],
  "Dilation": [1,1],
  "OutMaps": 512,
  "Groups": 1,
  "Weights": {"Type": "Float", "Count": 65536},
  "Bias": {"Type": "Float", "Count": 512},
  "HasSparseWeights": 0,
  "HasDynamicFilter": 0,
  "HasDynamicBias": 0,
  "HasResidual": 1,
  "ConvXAsActInputIdx": -1,
  "BiasAsActInputIdx": -1,
  "ResAsActInputIdx": -1,
  "Activation": "RELU",
  "HasBias": 1,
  "HasReLU": 1,
  "TacticName": "sm80_xmma_fprop_implicit_gemm_f32f32_f32f32_f32_nchwkcrs_nchw_tilesize64x64x8_stage3_warpsize1x4x1_g1_ffma_simple_t1r1s1_aligna4_alignc4",
  "TacticValue": "0x1fc87d7eb370bb7a"
},{
  "Name": "/layer2/layer2.2/conv1/Conv + /layer2/layer2.2/relu/Relu",
  "LayerType": "FusedConvActConvolution",
  "Inputs": [
  {
    "Name": "/layer2/layer2.1/relu_2/Relu_output_0",
    "Location": "Device",
    "Dimensions": [1,512,28,28],
    "Format/Datatype": "Row major linear FP32"
  }],
  "Outputs": [
  {
    "Name": "/layer2/layer2.2/relu/Relu_output_0",
    "Location": "Device",
    "Dimensions": [1,128,28,28],
    "Format/Datatype": "Row major linear FP32"
  }],
  "ParameterType": "Convolution",
  "Kernel": [1,1],
  "PaddingMode": "kEXPLICIT_ROUND_DOWN",
  "PrePadding": [0,0],
  "PostPadding": [0,0],
  "Stride": [1,1],
  "Dilation": [1,1],
  "OutMaps": 128,
  "Groups": 1,
  "Weights": {"Type": "Float", "Count": 65536},
  "Bias": {"Type": "Float", "Count": 128},
  "HasSparseWeights": 0,
  "HasDynamicFilter": 0,
  "HasDynamicBias": 0,
  "HasResidual": 0,
  "ConvXAsActInputIdx": -1,
  "BiasAsActInputIdx": -1,
  "ResAsActInputIdx": -1,
  "Activation": "RELU",
  "HasBias": 1,
  "ConvolutionTacticIndex": 89,
  "TacticValue": "0x000000000059ffff"
},{
  "Name": "/layer2/layer2.2/conv2/Conv + /layer2/layer2.2/relu_1/Relu",
  "LayerType": "FusedConvActConvolution",
  "Inputs": [
  {
    "Name": "/layer2/layer2.2/relu/Relu_output_0",
    "Location": "Device",
    "Dimensions": [1,128,28,28],
    "Format/Datatype": "Row major linear FP32"
  }],
  "Outputs": [
  {
    "Name": "/layer2/layer2.2/relu_1/Relu_output_0",
    "Location": "Device",
    "Dimensions": [1,128,28,28],
    "Format/Datatype": "Row major linear FP32"
  }],
  "ParameterType": "Convolution",
  "Kernel": [3,3],
  "PaddingMode": "kEXPLICIT_ROUND_DOWN",
  "PrePadding": [1,1],
  "PostPadding": [1,1],
  "Stride": [1,1],
  "Dilation": [1,1],
  "OutMaps": 128,
  "Groups": 1,
  "Weights": {"Type": "Float", "Count": 147456},
  "Bias": {"Type": "Float", "Count": 128},
  "HasSparseWeights": 0,
  "HasDynamicFilter": 0,
  "HasDynamicBias": 0,
  "HasResidual": 0,
  "ConvXAsActInputIdx": -1,
  "BiasAsActInputIdx": -1,
  "ResAsActInputIdx": -1,
  "Activation": "RELU",
  "HasBias": 1,
  "ConvolutionTacticIndex": 134,
  "TacticValue": "0x000000000086ffff"
},{
  "Name": "/layer2/layer2.2/conv3/Conv + /layer2/layer2.2/Add + /layer2/layer2.2/relu_2/Relu",
  "LayerType": "CaskConvolution",
  "Inputs": [
  {
    "Name": "/layer2/layer2.2/relu_1/Relu_output_0",
    "Location": "Device",
    "Dimensions": [1,128,28,28],
    "Format/Datatype": "Row major linear FP32"
  },
  {
    "Name": "/layer2/layer2.1/relu_2/Relu_output_0",
    "Location": "Device",
    "Dimensions": [1,512,28,28],
    "Format/Datatype": "Row major linear FP32"
  }],
  "Outputs": [
  {
    "Name": "/layer2/layer2.2/relu_2/Relu_output_0",
    "Location": "Device",
    "Dimensions": [1,512,28,28],
    "Format/Datatype": "Row major linear FP32"
  }],
  "ParameterType": "Convolution",
  "Kernel": [1,1],
  "PaddingMode": "kEXPLICIT_ROUND_DOWN",
  "PrePadding": [0,0],
  "PostPadding": [0,0],
  "Stride": [1,1],
  "Dilation": [1,1],
  "OutMaps": 512,
  "Groups": 1,
  "Weights": {"Type": "Float", "Count": 65536},
  "Bias": {"Type": "Float", "Count": 512},
  "HasSparseWeights": 0,
  "HasDynamicFilter": 0,
  "HasDynamicBias": 0,
  "HasResidual": 1,
  "ConvXAsActInputIdx": -1,
  "BiasAsActInputIdx": -1,
  "ResAsActInputIdx": -1,
  "Activation": "RELU",
  "HasBias": 1,
  "HasReLU": 1,
  "TacticName": "sm80_xmma_fprop_implicit_gemm_f32f32_f32f32_f32_nchwkcrs_nchw_tilesize64x64x8_stage3_warpsize1x4x1_g1_ffma_simple_t1r1s1_aligna4_alignc4",
  "TacticValue": "0x1fc87d7eb370bb7a"
},{
  "Name": "/layer2/layer2.3/conv1/Conv + /layer2/layer2.3/relu/Relu",
  "LayerType": "FusedConvActConvolution",
  "Inputs": [
  {
    "Name": "/layer2/layer2.2/relu_2/Relu_output_0",
    "Location": "Device",
    "Dimensions": [1,512,28,28],
    "Format/Datatype": "Row major linear FP32"
  }],
  "Outputs": [
  {
    "Name": "/layer2/layer2.3/relu/Relu_output_0",
    "Location": "Device",
    "Dimensions": [1,128,28,28],
    "Format/Datatype": "Row major linear FP32"
  }],
  "ParameterType": "Convolution",
  "Kernel": [1,1],
  "PaddingMode": "kEXPLICIT_ROUND_DOWN",
  "PrePadding": [0,0],
  "PostPadding": [0,0],
  "Stride": [1,1],
  "Dilation": [1,1],
  "OutMaps": 128,
  "Groups": 1,
  "Weights": {"Type": "Float", "Count": 65536},
  "Bias": {"Type": "Float", "Count": 128},
  "HasSparseWeights": 0,
  "HasDynamicFilter": 0,
  "HasDynamicBias": 0,
  "HasResidual": 0,
  "ConvXAsActInputIdx": -1,
  "BiasAsActInputIdx": -1,
  "ResAsActInputIdx": -1,
  "Activation": "RELU",
  "HasBias": 1,
  "ConvolutionTacticIndex": 89,
  "TacticValue": "0x000000000059ffff"
},{
  "Name": "/layer2/layer2.3/conv2/Conv + /layer2/layer2.3/relu_1/Relu",
  "LayerType": "FusedConvActConvolution",
  "Inputs": [
  {
    "Name": "/layer2/layer2.3/relu/Relu_output_0",
    "Location": "Device",
    "Dimensions": [1,128,28,28],
    "Format/Datatype": "Row major linear FP32"
  }],
  "Outputs": [
  {
    "Name": "/layer2/layer2.3/relu_1/Relu_output_0",
    "Location": "Device",
    "Dimensions": [1,128,28,28],
    "Format/Datatype": "Row major linear FP32"
  }],
  "ParameterType": "Convolution",
  "Kernel": [3,3],
  "PaddingMode": "kEXPLICIT_ROUND_DOWN",
  "PrePadding": [1,1],
  "PostPadding": [1,1],
  "Stride": [1,1],
  "Dilation": [1,1],
  "OutMaps": 128,
  "Groups": 1,
  "Weights": {"Type": "Float", "Count": 147456},
  "Bias": {"Type": "Float", "Count": 128},
  "HasSparseWeights": 0,
  "HasDynamicFilter": 0,
  "HasDynamicBias": 0,
  "HasResidual": 0,
  "ConvXAsActInputIdx": -1,
  "BiasAsActInputIdx": -1,
  "ResAsActInputIdx": -1,
  "Activation": "RELU",
  "HasBias": 1,
  "ConvolutionTacticIndex": 134,
  "TacticValue": "0x000000000086ffff"
},{
  "Name": "/layer2/layer2.3/conv3/Conv + /layer2/layer2.3/Add + /layer2/layer2.3/relu_2/Relu",
  "LayerType": "CaskConvolution",
  "Inputs": [
  {
    "Name": "/layer2/layer2.3/relu_1/Relu_output_0",
    "Location": "Device",
    "Dimensions": [1,128,28,28],
    "Format/Datatype": "Row major linear FP32"
  },
  {
    "Name": "/layer2/layer2.2/relu_2/Relu_output_0",
    "Location": "Device",
    "Dimensions": [1,512,28,28],
    "Format/Datatype": "Row major linear FP32"
  }],
  "Outputs": [
  {
    "Name": "/layer2/layer2.3/relu_2/Relu_output_0",
    "Location": "Device",
    "Dimensions": [1,512,28,28],
    "Format/Datatype": "Row major linear FP32"
  }],
  "ParameterType": "Convolution",
  "Kernel": [1,1],
  "PaddingMode": "kEXPLICIT_ROUND_DOWN",
  "PrePadding": [0,0],
  "PostPadding": [0,0],
  "Stride": [1,1],
  "Dilation": [1,1],
  "OutMaps": 512,
  "Groups": 1,
  "Weights": {"Type": "Float", "Count": 65536},
  "Bias": {"Type": "Float", "Count": 512},
  "HasSparseWeights": 0,
  "HasDynamicFilter": 0,
  "HasDynamicBias": 0,
  "HasResidual": 1,
  "ConvXAsActInputIdx": -1,
  "BiasAsActInputIdx": -1,
  "ResAsActInputIdx": -1,
  "Activation": "RELU",
  "HasBias": 1,
  "HasReLU": 1,
  "TacticName": "sm80_xmma_fprop_implicit_gemm_f32f32_f32f32_f32_nchwkcrs_nchw_tilesize64x64x8_stage3_warpsize1x4x1_g1_ffma_simple_t1r1s1_aligna4_alignc4",
  "TacticValue": "0x1fc87d7eb370bb7a"
},{
  "Name": "/layer3/layer3.0/conv1/Conv + /layer3/layer3.0/relu/Relu",
  "LayerType": "CudnnConvolution",
  "Inputs": [
  {
    "Name": "/layer2/layer2.3/relu_2/Relu_output_0",
    "Location": "Device",
    "Dimensions": [1,512,28,28],
    "Format/Datatype": "Row major linear FP32"
  }],
  "Outputs": [
  {
    "Name": "/layer3/layer3.0/relu/Relu_output_0",
    "Location": "Device",
    "Dimensions": [1,256,28,28],
    "Format/Datatype": "Row major linear FP32"
  }],
  "ParameterType": "Convolution",
  "Kernel": [1,1],
  "PaddingMode": "kEXPLICIT_ROUND_DOWN",
  "PrePadding": [0,0],
  "PostPadding": [0,0],
  "Stride": [1,1],
  "Dilation": [1,1],
  "OutMaps": 256,
  "Groups": 1,
  "Weights": {"Type": "Float", "Count": 131072},
  "Bias": {"Type": "Float", "Count": 256},
  "HasSparseWeights": 0,
  "HasDynamicFilter": 0,
  "HasDynamicBias": 0,
  "HasResidual": 0,
  "ConvXAsActInputIdx": -1,
  "BiasAsActInputIdx": -1,
  "ResAsActInputIdx": -1,
  "Activation": "RELU",
  "HasBias": 1,
  "TacticValue": "0x0000000000000001"
},{
  "Name": "Reformatting CopyNode for Input Tensor 0 to /layer3/layer3.0/conv2/Conv + /layer3/layer3.0/relu_1/Relu",
  "LayerType": "Reformat",
  "Inputs": [
  {
    "Name": "/layer3/layer3.0/relu/Relu_output_0",
    "Location": "Device",
    "Dimensions": [1,256,28,28],
    "Format/Datatype": "Row major linear FP32"
  }],
  "Outputs": [
  {
    "Name": "Reformatted Input Tensor 0 to /layer3/layer3.0/conv2/Conv + /layer3/layer3.0/relu_1/Relu",
    "Location": "Device",
    "Dimensions": [1,256,28,28],
    "Format/Datatype": "Channel major FP32 format"
  }],
  "ParameterType": "Reformat",
  "Origin": "REFORMAT",
  "TacticValue": "0x00000000000003ea"
},{
  "Name": "/layer3/layer3.0/conv2/Conv + /layer3/layer3.0/relu_1/Relu",
  "LayerType": "CaskConvolution",
  "Inputs": [
  {
    "Name": "Reformatted Input Tensor 0 to /layer3/layer3.0/conv2/Conv + /layer3/layer3.0/relu_1/Relu",
    "Location": "Device",
    "Dimensions": [1,256,28,28],
    "Format/Datatype": "Channel major FP32 format"
  }],
  "Outputs": [
  {
    "Name": "/layer3/layer3.0/relu_1/Relu_output_0",
    "Location": "Device",
    "Dimensions": [1,256,14,14],
    "Format/Datatype": "Channel major FP32 format"
  }],
  "ParameterType": "Convolution",
  "Kernel": [3,3],
  "PaddingMode": "kEXPLICIT_ROUND_DOWN",
  "PrePadding": [1,1],
  "PostPadding": [1,1],
  "Stride": [2,2],
  "Dilation": [1,1],
  "OutMaps": 256,
  "Groups": 1,
  "Weights": {"Type": "Float", "Count": 589824},
  "Bias": {"Type": "Float", "Count": 256},
  "HasSparseWeights": 0,
  "HasDynamicFilter": 0,
  "HasDynamicBias": 0,
  "HasResidual": 0,
  "ConvXAsActInputIdx": -1,
  "BiasAsActInputIdx": -1,
  "ResAsActInputIdx": -1,
  "Activation": "RELU",
  "HasBias": 1,
  "HasReLU": 1,
  "TacticName": "sm80_xmma_fprop_implicit_gemm_f32f32_f32f32_f32_nhwckrsc_nhwc_tilesize32x32x8_stage3_warpsize1x2x1_g1_ffma_t1r3s3_aligna4_alignc4",
  "TacticValue": "0x5953bec563d26434"
},{
  "Name": "/layer3/layer3.0/downsample/downsample.0/Conv",
  "LayerType": "CaskConvolution",
  "Inputs": [
  {
    "Name": "/layer2/layer2.3/relu_2/Relu_output_0",
    "Location": "Device",
    "Dimensions": [1,512,28,28],
    "Format/Datatype": "Row major linear FP32"
  }],
  "Outputs": [
  {
    "Name": "/layer3/layer3.0/downsample/downsample.0/Conv_output_0",
    "Location": "Device",
    "Dimensions": [1,1024,14,14],
    "Format/Datatype": "Row major linear FP32"
  }],
  "ParameterType": "Convolution",
  "Kernel": [1,1],
  "PaddingMode": "kEXPLICIT_ROUND_DOWN",
  "PrePadding": [0,0],
  "PostPadding": [0,0],
  "Stride": [2,2],
  "Dilation": [1,1],
  "OutMaps": 1024,
  "Groups": 1,
  "Weights": {"Type": "Float", "Count": 524288},
  "Bias": {"Type": "Float", "Count": 1024},
  "HasSparseWeights": 0,
  "HasDynamicFilter": 0,
  "HasDynamicBias": 0,
  "HasResidual": 0,
  "ConvXAsActInputIdx": -1,
  "BiasAsActInputIdx": -1,
  "ResAsActInputIdx": -1,
  "Activation": "NONE",
  "HasBias": 1,
  "HasReLU": 0,
  "TacticName": "sm80_xmma_fprop_implicit_gemm_f32f32_f32f32_f32_nchwkcrs_nchw_tilesize64x64x8_stage3_warpsize1x4x1_g1_ffma_aligna4_alignc4",
  "TacticValue": "0xa31d27de74b895ff"
},{
  "Name": "Reformatting CopyNode for Input Tensor 0 to /layer3/layer3.0/conv3/Conv + /layer3/layer3.0/Add + /layer3/layer3.0/relu_2/Relu",
  "LayerType": "Reformat",
  "Inputs": [
  {
    "Name": "/layer3/layer3.0/relu_1/Relu_output_0",
    "Location": "Device",
    "Dimensions": [1,256,14,14],
    "Format/Datatype": "Channel major FP32 format"
  }],
  "Outputs": [
  {
    "Name": "Reformatted Input Tensor 0 to /layer3/layer3.0/conv3/Conv + /layer3/layer3.0/Add + /layer3/layer3.0/relu_2/Relu",
    "Location": "Device",
    "Dimensions": [1,256,14,14],
    "Format/Datatype": "Row major linear FP32"
  }],
  "ParameterType": "Reformat",
  "Origin": "REFORMAT",
  "TacticValue": "0x0000000000000000"
},{
  "Name": "/layer3/layer3.0/conv3/Conv + /layer3/layer3.0/Add + /layer3/layer3.0/relu_2/Relu",
  "LayerType": "CaskConvolution",
  "Inputs": [
  {
    "Name": "Reformatted Input Tensor 0 to /layer3/layer3.0/conv3/Conv + /layer3/layer3.0/Add + /layer3/layer3.0/relu_2/Relu",
    "Location": "Device",
    "Dimensions": [1,256,14,14],
    "Format/Datatype": "Row major linear FP32"
  },
  {
    "Name": "/layer3/layer3.0/downsample/downsample.0/Conv_output_0",
    "Location": "Device",
    "Dimensions": [1,1024,14,14],
    "Format/Datatype": "Row major linear FP32"
  }],
  "Outputs": [
  {
    "Name": "/layer3/layer3.0/relu_2/Relu_output_0",
    "Location": "Device",
    "Dimensions": [1,1024,14,14],
    "Format/Datatype": "Row major linear FP32"
  }],
  "ParameterType": "Convolution",
  "Kernel": [1,1],
  "PaddingMode": "kEXPLICIT_ROUND_DOWN",
  "PrePadding": [0,0],
  "PostPadding": [0,0],
  "Stride": [1,1],
  "Dilation": [1,1],
  "OutMaps": 1024,
  "Groups": 1,
  "Weights": {"Type": "Float", "Count": 262144},
  "Bias": {"Type": "Float", "Count": 1024},
  "HasSparseWeights": 0,
  "HasDynamicFilter": 0,
  "HasDynamicBias": 0,
  "HasResidual": 1,
  "ConvXAsActInputIdx": -1,
  "BiasAsActInputIdx": -1,
  "ResAsActInputIdx": -1,
  "Activation": "RELU",
  "HasBias": 1,
  "HasReLU": 1,
  "TacticName": "sm80_xmma_fprop_implicit_gemm_f32f32_f32f32_f32_nchwkcrs_nchw_tilesize64x64x8_stage3_warpsize1x4x1_g1_ffma_aligna4_alignc4",
  "TacticValue": "0xa31d27de74b895ff"
},{
  "Name": "/layer3/layer3.1/conv1/Conv + /layer3/layer3.1/relu/Relu",
  "LayerType": "FusedConvActConvolution",
  "Inputs": [
  {
    "Name": "/layer3/layer3.0/relu_2/Relu_output_0",
    "Location": "Device",
    "Dimensions": [1,1024,14,14],
    "Format/Datatype": "Row major linear FP32"
  }],
  "Outputs": [
  {
    "Name": "/layer3/layer3.1/relu/Relu_output_0",
    "Location": "Device",
    "Dimensions": [1,256,14,14],
    "Format/Datatype": "Row major linear FP32"
  }],
  "ParameterType": "Convolution",
  "Kernel": [1,1],
  "PaddingMode": "kEXPLICIT_ROUND_DOWN",
  "PrePadding": [0,0],
  "PostPadding": [0,0],
  "Stride": [1,1],
  "Dilation": [1,1],
  "OutMaps": 256,
  "Groups": 1,
  "Weights": {"Type": "Float", "Count": 262144},
  "Bias": {"Type": "Float", "Count": 256},
  "HasSparseWeights": 0,
  "HasDynamicFilter": 0,
  "HasDynamicBias": 0,
  "HasResidual": 0,
  "ConvXAsActInputIdx": -1,
  "BiasAsActInputIdx": -1,
  "ResAsActInputIdx": -1,
  "Activation": "RELU",
  "HasBias": 1,
  "ConvolutionTacticIndex": 31,
  "TacticValue": "0x00000000001fffff"
},{
  "Name": "/layer3/layer3.1/conv2/Conv + /layer3/layer3.1/relu_1/Relu",
  "LayerType": "FusedConvActConvolution",
  "Inputs": [
  {
    "Name": "/layer3/layer3.1/relu/Relu_output_0",
    "Location": "Device",
    "Dimensions": [1,256,14,14],
    "Format/Datatype": "Row major linear FP32"
  }],
  "Outputs": [
  {
    "Name": "/layer3/layer3.1/relu_1/Relu_output_0",
    "Location": "Device",
    "Dimensions": [1,256,14,14],
    "Format/Datatype": "Row major linear FP32"
  }],
  "ParameterType": "Convolution",
  "Kernel": [3,3],
  "PaddingMode": "kEXPLICIT_ROUND_DOWN",
  "PrePadding": [1,1],
  "PostPadding": [1,1],
  "Stride": [1,1],
  "Dilation": [1,1],
  "OutMaps": 256,
  "Groups": 1,
  "Weights": {"Type": "Float", "Count": 589824},
  "Bias": {"Type": "Float", "Count": 256},
  "HasSparseWeights": 0,
  "HasDynamicFilter": 0,
  "HasDynamicBias": 0,
  "HasResidual": 0,
  "ConvXAsActInputIdx": -1,
  "BiasAsActInputIdx": -1,
  "ResAsActInputIdx": -1,
  "Activation": "RELU",
  "HasBias": 1,
  "ConvolutionTacticIndex": 162,
  "TacticValue": "0x0000000000a2ffff"
},{
  "Name": "/layer3/layer3.1/conv3/Conv + /layer3/layer3.1/Add + /layer3/layer3.1/relu_2/Relu",
  "LayerType": "CaskConvolution",
  "Inputs": [
  {
    "Name": "/layer3/layer3.1/relu_1/Relu_output_0",
    "Location": "Device",
    "Dimensions": [1,256,14,14],
    "Format/Datatype": "Row major linear FP32"
  },
  {
    "Name": "/layer3/layer3.0/relu_2/Relu_output_0",
    "Location": "Device",
    "Dimensions": [1,1024,14,14],
    "Format/Datatype": "Row major linear FP32"
  }],
  "Outputs": [
  {
    "Name": "/layer3/layer3.1/relu_2/Relu_output_0",
    "Location": "Device",
    "Dimensions": [1,1024,14,14],
    "Format/Datatype": "Row major linear FP32"
  }],
  "ParameterType": "Convolution",
  "Kernel": [1,1],
  "PaddingMode": "kEXPLICIT_ROUND_DOWN",
  "PrePadding": [0,0],
  "PostPadding": [0,0],
  "Stride": [1,1],
  "Dilation": [1,1],
  "OutMaps": 1024,
  "Groups": 1,
  "Weights": {"Type": "Float", "Count": 262144},
  "Bias": {"Type": "Float", "Count": 1024},
  "HasSparseWeights": 0,
  "HasDynamicFilter": 0,
  "HasDynamicBias": 0,
  "HasResidual": 1,
  "ConvXAsActInputIdx": -1,
  "BiasAsActInputIdx": -1,
  "ResAsActInputIdx": -1,
  "Activation": "RELU",
  "HasBias": 1,
  "HasReLU": 1,
  "TacticName": "sm80_xmma_fprop_implicit_gemm_f32f32_f32f32_f32_nchwkcrs_nchw_tilesize64x64x8_stage3_warpsize1x4x1_g1_ffma_aligna4_alignc4",
  "TacticValue": "0xa31d27de74b895ff"
},{
  "Name": "/layer3/layer3.2/conv1/Conv + /layer3/layer3.2/relu/Relu",
  "LayerType": "FusedConvActConvolution",
  "Inputs": [
  {
    "Name": "/layer3/layer3.1/relu_2/Relu_output_0",
    "Location": "Device",
    "Dimensions": [1,1024,14,14],
    "Format/Datatype": "Row major linear FP32"
  }],
  "Outputs": [
  {
    "Name": "/layer3/layer3.2/relu/Relu_output_0",
    "Location": "Device",
    "Dimensions": [1,256,14,14],
    "Format/Datatype": "Row major linear FP32"
  }],
  "ParameterType": "Convolution",
  "Kernel": [1,1],
  "PaddingMode": "kEXPLICIT_ROUND_DOWN",
  "PrePadding": [0,0],
  "PostPadding": [0,0],
  "Stride": [1,1],
  "Dilation": [1,1],
  "OutMaps": 256,
  "Groups": 1,
  "Weights": {"Type": "Float", "Count": 262144},
  "Bias": {"Type": "Float", "Count": 256},
  "HasSparseWeights": 0,
  "HasDynamicFilter": 0,
  "HasDynamicBias": 0,
  "HasResidual": 0,
  "ConvXAsActInputIdx": -1,
  "BiasAsActInputIdx": -1,
  "ResAsActInputIdx": -1,
  "Activation": "RELU",
  "HasBias": 1,
  "ConvolutionTacticIndex": 31,
  "TacticValue": "0x00000000001fffff"
},{
  "Name": "/layer3/layer3.2/conv2/Conv + /layer3/layer3.2/relu_1/Relu",
  "LayerType": "FusedConvActConvolution",
  "Inputs": [
  {
    "Name": "/layer3/layer3.2/relu/Relu_output_0",
    "Location": "Device",
    "Dimensions": [1,256,14,14],
    "Format/Datatype": "Row major linear FP32"
  }],
  "Outputs": [
  {
    "Name": "/layer3/layer3.2/relu_1/Relu_output_0",
    "Location": "Device",
    "Dimensions": [1,256,14,14],
    "Format/Datatype": "Row major linear FP32"
  }],
  "ParameterType": "Convolution",
  "Kernel": [3,3],
  "PaddingMode": "kEXPLICIT_ROUND_DOWN",
  "PrePadding": [1,1],
  "PostPadding": [1,1],
  "Stride": [1,1],
  "Dilation": [1,1],
  "OutMaps": 256,
  "Groups": 1,
  "Weights": {"Type": "Float", "Count": 589824},
  "Bias": {"Type": "Float", "Count": 256},
  "HasSparseWeights": 0,
  "HasDynamicFilter": 0,
  "HasDynamicBias": 0,
  "HasResidual": 0,
  "ConvXAsActInputIdx": -1,
  "BiasAsActInputIdx": -1,
  "ResAsActInputIdx": -1,
  "Activation": "RELU",
  "HasBias": 1,
  "ConvolutionTacticIndex": 162,
  "TacticValue": "0x0000000000a2ffff"
},{
  "Name": "/layer3/layer3.2/conv3/Conv + /layer3/layer3.2/Add + /layer3/layer3.2/relu_2/Relu",
  "LayerType": "CaskConvolution",
  "Inputs": [
  {
    "Name": "/layer3/layer3.2/relu_1/Relu_output_0",
    "Location": "Device",
    "Dimensions": [1,256,14,14],
    "Format/Datatype": "Row major linear FP32"
  },
  {
    "Name": "/layer3/layer3.1/relu_2/Relu_output_0",
    "Location": "Device",
    "Dimensions": [1,1024,14,14],
    "Format/Datatype": "Row major linear FP32"
  }],
  "Outputs": [
  {
    "Name": "/layer3/layer3.2/relu_2/Relu_output_0",
    "Location": "Device",
    "Dimensions": [1,1024,14,14],
    "Format/Datatype": "Row major linear FP32"
  }],
  "ParameterType": "Convolution",
  "Kernel": [1,1],
  "PaddingMode": "kEXPLICIT_ROUND_DOWN",
  "PrePadding": [0,0],
  "PostPadding": [0,0],
  "Stride": [1,1],
  "Dilation": [1,1],
  "OutMaps": 1024,
  "Groups": 1,
  "Weights": {"Type": "Float", "Count": 262144},
  "Bias": {"Type": "Float", "Count": 1024},
  "HasSparseWeights": 0,
  "HasDynamicFilter": 0,
  "HasDynamicBias": 0,
  "HasResidual": 1,
  "ConvXAsActInputIdx": -1,
  "BiasAsActInputIdx": -1,
  "ResAsActInputIdx": -1,
  "Activation": "RELU",
  "HasBias": 1,
  "HasReLU": 1,
  "TacticName": "sm80_xmma_fprop_implicit_gemm_f32f32_f32f32_f32_nchwkcrs_nchw_tilesize64x64x8_stage3_warpsize1x4x1_g1_ffma_aligna4_alignc4",
  "TacticValue": "0xa31d27de74b895ff"
},{
  "Name": "/layer3/layer3.3/conv1/Conv + /layer3/layer3.3/relu/Relu",
  "LayerType": "FusedConvActConvolution",
  "Inputs": [
  {
    "Name": "/layer3/layer3.2/relu_2/Relu_output_0",
    "Location": "Device",
    "Dimensions": [1,1024,14,14],
    "Format/Datatype": "Row major linear FP32"
  }],
  "Outputs": [
  {
    "Name": "/layer3/layer3.3/relu/Relu_output_0",
    "Location": "Device",
    "Dimensions": [1,256,14,14],
    "Format/Datatype": "Row major linear FP32"
  }],
  "ParameterType": "Convolution",
  "Kernel": [1,1],
  "PaddingMode": "kEXPLICIT_ROUND_DOWN",
  "PrePadding": [0,0],
  "PostPadding": [0,0],
  "Stride": [1,1],
  "Dilation": [1,1],
  "OutMaps": 256,
  "Groups": 1,
  "Weights": {"Type": "Float", "Count": 262144},
  "Bias": {"Type": "Float", "Count": 256},
  "HasSparseWeights": 0,
  "HasDynamicFilter": 0,
  "HasDynamicBias": 0,
  "HasResidual": 0,
  "ConvXAsActInputIdx": -1,
  "BiasAsActInputIdx": -1,
  "ResAsActInputIdx": -1,
  "Activation": "RELU",
  "HasBias": 1,
  "ConvolutionTacticIndex": 31,
  "TacticValue": "0x00000000001fffff"
},{
  "Name": "/layer3/layer3.3/conv2/Conv + /layer3/layer3.3/relu_1/Relu",
  "LayerType": "FusedConvActConvolution",
  "Inputs": [
  {
    "Name": "/layer3/layer3.3/relu/Relu_output_0",
    "Location": "Device",
    "Dimensions": [1,256,14,14],
    "Format/Datatype": "Row major linear FP32"
  }],
  "Outputs": [
  {
    "Name": "/layer3/layer3.3/relu_1/Relu_output_0",
    "Location": "Device",
    "Dimensions": [1,256,14,14],
    "Format/Datatype": "Row major linear FP32"
  }],
  "ParameterType": "Convolution",
  "Kernel": [3,3],
  "PaddingMode": "kEXPLICIT_ROUND_DOWN",
  "PrePadding": [1,1],
  "PostPadding": [1,1],
  "Stride": [1,1],
  "Dilation": [1,1],
  "OutMaps": 256,
  "Groups": 1,
  "Weights": {"Type": "Float", "Count": 589824},
  "Bias": {"Type": "Float", "Count": 256},
  "HasSparseWeights": 0,
  "HasDynamicFilter": 0,
  "HasDynamicBias": 0,
  "HasResidual": 0,
  "ConvXAsActInputIdx": -1,
  "BiasAsActInputIdx": -1,
  "ResAsActInputIdx": -1,
  "Activation": "RELU",
  "HasBias": 1,
  "ConvolutionTacticIndex": 162,
  "TacticValue": "0x0000000000a2ffff"
},{
  "Name": "/layer3/layer3.3/conv3/Conv + /layer3/layer3.3/Add + /layer3/layer3.3/relu_2/Relu",
  "LayerType": "CaskConvolution",
  "Inputs": [
  {
    "Name": "/layer3/layer3.3/relu_1/Relu_output_0",
    "Location": "Device",
    "Dimensions": [1,256,14,14],
    "Format/Datatype": "Row major linear FP32"
  },
  {
    "Name": "/layer3/layer3.2/relu_2/Relu_output_0",
    "Location": "Device",
    "Dimensions": [1,1024,14,14],
    "Format/Datatype": "Row major linear FP32"
  }],
  "Outputs": [
  {
    "Name": "/layer3/layer3.3/relu_2/Relu_output_0",
    "Location": "Device",
    "Dimensions": [1,1024,14,14],
    "Format/Datatype": "Row major linear FP32"
  }],
  "ParameterType": "Convolution",
  "Kernel": [1,1],
  "PaddingMode": "kEXPLICIT_ROUND_DOWN",
  "PrePadding": [0,0],
  "PostPadding": [0,0],
  "Stride": [1,1],
  "Dilation": [1,1],
  "OutMaps": 1024,
  "Groups": 1,
  "Weights": {"Type": "Float", "Count": 262144},
  "Bias": {"Type": "Float", "Count": 1024},
  "HasSparseWeights": 0,
  "HasDynamicFilter": 0,
  "HasDynamicBias": 0,
  "HasResidual": 1,
  "ConvXAsActInputIdx": -1,
  "BiasAsActInputIdx": -1,
  "ResAsActInputIdx": -1,
  "Activation": "RELU",
  "HasBias": 1,
  "HasReLU": 1,
  "TacticName": "sm80_xmma_fprop_implicit_gemm_f32f32_f32f32_f32_nchwkcrs_nchw_tilesize64x64x8_stage3_warpsize1x4x1_g1_ffma_aligna4_alignc4",
  "TacticValue": "0xa31d27de74b895ff"
},{
  "Name": "/layer3/layer3.4/conv1/Conv + /layer3/layer3.4/relu/Relu",
  "LayerType": "FusedConvActConvolution",
  "Inputs": [
  {
    "Name": "/layer3/layer3.3/relu_2/Relu_output_0",
    "Location": "Device",
    "Dimensions": [1,1024,14,14],
    "Format/Datatype": "Row major linear FP32"
  }],
  "Outputs": [
  {
    "Name": "/layer3/layer3.4/relu/Relu_output_0",
    "Location": "Device",
    "Dimensions": [1,256,14,14],
    "Format/Datatype": "Row major linear FP32"
  }],
  "ParameterType": "Convolution",
  "Kernel": [1,1],
  "PaddingMode": "kEXPLICIT_ROUND_DOWN",
  "PrePadding": [0,0],
  "PostPadding": [0,0],
  "Stride": [1,1],
  "Dilation": [1,1],
  "OutMaps": 256,
  "Groups": 1,
  "Weights": {"Type": "Float", "Count": 262144},
  "Bias": {"Type": "Float", "Count": 256},
  "HasSparseWeights": 0,
  "HasDynamicFilter": 0,
  "HasDynamicBias": 0,
  "HasResidual": 0,
  "ConvXAsActInputIdx": -1,
  "BiasAsActInputIdx": -1,
  "ResAsActInputIdx": -1,
  "Activation": "RELU",
  "HasBias": 1,
  "ConvolutionTacticIndex": 31,
  "TacticValue": "0x00000000001fffff"
},{
  "Name": "/layer3/layer3.4/conv2/Conv + /layer3/layer3.4/relu_1/Relu",
  "LayerType": "FusedConvActConvolution",
  "Inputs": [
  {
    "Name": "/layer3/layer3.4/relu/Relu_output_0",
    "Location": "Device",
    "Dimensions": [1,256,14,14],
    "Format/Datatype": "Row major linear FP32"
  }],
  "Outputs": [
  {
    "Name": "/layer3/layer3.4/relu_1/Relu_output_0",
    "Location": "Device",
    "Dimensions": [1,256,14,14],
    "Format/Datatype": "Row major linear FP32"
  }],
  "ParameterType": "Convolution",
  "Kernel": [3,3],
  "PaddingMode": "kEXPLICIT_ROUND_DOWN",
  "PrePadding": [1,1],
  "PostPadding": [1,1],
  "Stride": [1,1],
  "Dilation": [1,1],
  "OutMaps": 256,
  "Groups": 1,
  "Weights": {"Type": "Float", "Count": 589824},
  "Bias": {"Type": "Float", "Count": 256},
  "HasSparseWeights": 0,
  "HasDynamicFilter": 0,
  "HasDynamicBias": 0,
  "HasResidual": 0,
  "ConvXAsActInputIdx": -1,
  "BiasAsActInputIdx": -1,
  "ResAsActInputIdx": -1,
  "Activation": "RELU",
  "HasBias": 1,
  "ConvolutionTacticIndex": 162,
  "TacticValue": "0x0000000000a2ffff"
},{
  "Name": "/layer3/layer3.4/conv3/Conv + /layer3/layer3.4/Add + /layer3/layer3.4/relu_2/Relu",
  "LayerType": "CaskConvolution",
  "Inputs": [
  {
    "Name": "/layer3/layer3.4/relu_1/Relu_output_0",
    "Location": "Device",
    "Dimensions": [1,256,14,14],
    "Format/Datatype": "Row major linear FP32"
  },
  {
    "Name": "/layer3/layer3.3/relu_2/Relu_output_0",
    "Location": "Device",
    "Dimensions": [1,1024,14,14],
    "Format/Datatype": "Row major linear FP32"
  }],
  "Outputs": [
  {
    "Name": "/layer3/layer3.4/relu_2/Relu_output_0",
    "Location": "Device",
    "Dimensions": [1,1024,14,14],
    "Format/Datatype": "Row major linear FP32"
  }],
  "ParameterType": "Convolution",
  "Kernel": [1,1],
  "PaddingMode": "kEXPLICIT_ROUND_DOWN",
  "PrePadding": [0,0],
  "PostPadding": [0,0],
  "Stride": [1,1],
  "Dilation": [1,1],
  "OutMaps": 1024,
  "Groups": 1,
  "Weights": {"Type": "Float", "Count": 262144},
  "Bias": {"Type": "Float", "Count": 1024},
  "HasSparseWeights": 0,
  "HasDynamicFilter": 0,
  "HasDynamicBias": 0,
  "HasResidual": 1,
  "ConvXAsActInputIdx": -1,
  "BiasAsActInputIdx": -1,
  "ResAsActInputIdx": -1,
  "Activation": "RELU",
  "HasBias": 1,
  "HasReLU": 1,
  "TacticName": "sm80_xmma_fprop_implicit_gemm_f32f32_f32f32_f32_nchwkcrs_nchw_tilesize64x64x8_stage3_warpsize1x4x1_g1_ffma_aligna4_alignc4",
  "TacticValue": "0xa31d27de74b895ff"
},{
  "Name": "/layer3/layer3.5/conv1/Conv + /layer3/layer3.5/relu/Relu",
  "LayerType": "FusedConvActConvolution",
  "Inputs": [
  {
    "Name": "/layer3/layer3.4/relu_2/Relu_output_0",
    "Location": "Device",
    "Dimensions": [1,1024,14,14],
    "Format/Datatype": "Row major linear FP32"
  }],
  "Outputs": [
  {
    "Name": "/layer3/layer3.5/relu/Relu_output_0",
    "Location": "Device",
    "Dimensions": [1,256,14,14],
    "Format/Datatype": "Row major linear FP32"
  }],
  "ParameterType": "Convolution",
  "Kernel": [1,1],
  "PaddingMode": "kEXPLICIT_ROUND_DOWN",
  "PrePadding": [0,0],
  "PostPadding": [0,0],
  "Stride": [1,1],
  "Dilation": [1,1],
  "OutMaps": 256,
  "Groups": 1,
  "Weights": {"Type": "Float", "Count": 262144},
  "Bias": {"Type": "Float", "Count": 256},
  "HasSparseWeights": 0,
  "HasDynamicFilter": 0,
  "HasDynamicBias": 0,
  "HasResidual": 0,
  "ConvXAsActInputIdx": -1,
  "BiasAsActInputIdx": -1,
  "ResAsActInputIdx": -1,
  "Activation": "RELU",
  "HasBias": 1,
  "ConvolutionTacticIndex": 31,
  "TacticValue": "0x00000000001fffff"
},{
  "Name": "/layer3/layer3.5/conv2/Conv + /layer3/layer3.5/relu_1/Relu",
  "LayerType": "FusedConvActConvolution",
  "Inputs": [
  {
    "Name": "/layer3/layer3.5/relu/Relu_output_0",
    "Location": "Device",
    "Dimensions": [1,256,14,14],
    "Format/Datatype": "Row major linear FP32"
  }],
  "Outputs": [
  {
    "Name": "/layer3/layer3.5/relu_1/Relu_output_0",
    "Location": "Device",
    "Dimensions": [1,256,14,14],
    "Format/Datatype": "Row major linear FP32"
  }],
  "ParameterType": "Convolution",
  "Kernel": [3,3],
  "PaddingMode": "kEXPLICIT_ROUND_DOWN",
  "PrePadding": [1,1],
  "PostPadding": [1,1],
  "Stride": [1,1],
  "Dilation": [1,1],
  "OutMaps": 256,
  "Groups": 1,
  "Weights": {"Type": "Float", "Count": 589824},
  "Bias": {"Type": "Float", "Count": 256},
  "HasSparseWeights": 0,
  "HasDynamicFilter": 0,
  "HasDynamicBias": 0,
  "HasResidual": 0,
  "ConvXAsActInputIdx": -1,
  "BiasAsActInputIdx": -1,
  "ResAsActInputIdx": -1,
  "Activation": "RELU",
  "HasBias": 1,
  "ConvolutionTacticIndex": 162,
  "TacticValue": "0x0000000000a2ffff"
},{
  "Name": "/layer3/layer3.5/conv3/Conv + /layer3/layer3.5/Add + /layer3/layer3.5/relu_2/Relu",
  "LayerType": "CaskConvolution",
  "Inputs": [
  {
    "Name": "/layer3/layer3.5/relu_1/Relu_output_0",
    "Location": "Device",
    "Dimensions": [1,256,14,14],
    "Format/Datatype": "Row major linear FP32"
  },
  {
    "Name": "/layer3/layer3.4/relu_2/Relu_output_0",
    "Location": "Device",
    "Dimensions": [1,1024,14,14],
    "Format/Datatype": "Row major linear FP32"
  }],
  "Outputs": [
  {
    "Name": "/layer3/layer3.5/relu_2/Relu_output_0",
    "Location": "Device",
    "Dimensions": [1,1024,14,14],
    "Format/Datatype": "Row major linear FP32"
  }],
  "ParameterType": "Convolution",
  "Kernel": [1,1],
  "PaddingMode": "kEXPLICIT_ROUND_DOWN",
  "PrePadding": [0,0],
  "PostPadding": [0,0],
  "Stride": [1,1],
  "Dilation": [1,1],
  "OutMaps": 1024,
  "Groups": 1,
  "Weights": {"Type": "Float", "Count": 262144},
  "Bias": {"Type": "Float", "Count": 1024},
  "HasSparseWeights": 0,
  "HasDynamicFilter": 0,
  "HasDynamicBias": 0,
  "HasResidual": 1,
  "ConvXAsActInputIdx": -1,
  "BiasAsActInputIdx": -1,
  "ResAsActInputIdx": -1,
  "Activation": "RELU",
  "HasBias": 1,
  "HasReLU": 1,
  "TacticName": "sm80_xmma_fprop_implicit_gemm_f32f32_f32f32_f32_nchwkcrs_nchw_tilesize64x64x8_stage3_warpsize1x4x1_g1_ffma_aligna4_alignc4",
  "TacticValue": "0xa31d27de74b895ff"
},{
  "Name": "/layer4/layer4.0/conv1/Conv + /layer4/layer4.0/relu/Relu",
  "LayerType": "CudnnConvolution",
  "Inputs": [
  {
    "Name": "/layer3/layer3.5/relu_2/Relu_output_0",
    "Location": "Device",
    "Dimensions": [1,1024,14,14],
    "Format/Datatype": "Row major linear FP32"
  }],
  "Outputs": [
  {
    "Name": "/layer4/layer4.0/relu/Relu_output_0",
    "Location": "Device",
    "Dimensions": [1,512,14,14],
    "Format/Datatype": "Row major linear FP32"
  }],
  "ParameterType": "Convolution",
  "Kernel": [1,1],
  "PaddingMode": "kEXPLICIT_ROUND_DOWN",
  "PrePadding": [0,0],
  "PostPadding": [0,0],
  "Stride": [1,1],
  "Dilation": [1,1],
  "OutMaps": 512,
  "Groups": 1,
  "Weights": {"Type": "Float", "Count": 524288},
  "Bias": {"Type": "Float", "Count": 512},
  "HasSparseWeights": 0,
  "HasDynamicFilter": 0,
  "HasDynamicBias": 0,
  "HasResidual": 0,
  "ConvXAsActInputIdx": -1,
  "BiasAsActInputIdx": -1,
  "ResAsActInputIdx": -1,
  "Activation": "RELU",
  "HasBias": 1,
  "TacticValue": "0x0000000000000001"
},{
  "Name": "Reformatting CopyNode for Input Tensor 0 to /layer4/layer4.0/conv2/Conv + /layer4/layer4.0/relu_1/Relu",
  "LayerType": "Reformat",
  "Inputs": [
  {
    "Name": "/layer4/layer4.0/relu/Relu_output_0",
    "Location": "Device",
    "Dimensions": [1,512,14,14],
    "Format/Datatype": "Row major linear FP32"
  }],
  "Outputs": [
  {
    "Name": "Reformatted Input Tensor 0 to /layer4/layer4.0/conv2/Conv + /layer4/layer4.0/relu_1/Relu",
    "Location": "Device",
    "Dimensions": [1,512,14,14],
    "Format/Datatype": "Channel major FP32 format"
  }],
  "ParameterType": "Reformat",
  "Origin": "REFORMAT",
  "TacticValue": "0x0000000000000000"
},{
  "Name": "/layer4/layer4.0/conv2/Conv + /layer4/layer4.0/relu_1/Relu",
  "LayerType": "CaskConvolution",
  "Inputs": [
  {
    "Name": "Reformatted Input Tensor 0 to /layer4/layer4.0/conv2/Conv + /layer4/layer4.0/relu_1/Relu",
    "Location": "Device",
    "Dimensions": [1,512,14,14],
    "Format/Datatype": "Channel major FP32 format"
  }],
  "Outputs": [
  {
    "Name": "/layer4/layer4.0/relu_1/Relu_output_0",
    "Location": "Device",
    "Dimensions": [1,512,7,7],
    "Format/Datatype": "Channel major FP32 format"
  }],
  "ParameterType": "Convolution",
  "Kernel": [3,3],
  "PaddingMode": "kEXPLICIT_ROUND_DOWN",
  "PrePadding": [1,1],
  "PostPadding": [1,1],
  "Stride": [2,2],
  "Dilation": [1,1],
  "OutMaps": 512,
  "Groups": 1,
  "Weights": {"Type": "Float", "Count": 2359296},
  "Bias": {"Type": "Float", "Count": 512},
  "HasSparseWeights": 0,
  "HasDynamicFilter": 0,
  "HasDynamicBias": 0,
  "HasResidual": 0,
  "ConvXAsActInputIdx": -1,
  "BiasAsActInputIdx": -1,
  "ResAsActInputIdx": -1,
  "Activation": "RELU",
  "HasBias": 1,
  "HasReLU": 1,
  "TacticName": "sm80_xmma_fprop_implicit_gemm_f32f32_f32f32_f32_nhwckrsc_nhwc_tilesize32x32x8_stage3_warpsize1x2x1_g1_ffma_t1r3s3_aligna4_alignc4",
  "TacticValue": "0x5953bec563d26434"
},{
  "Name": "Reformatting CopyNode for Input Tensor 0 to /layer4/layer4.0/downsample/downsample.0/Conv",
  "LayerType": "Reformat",
  "Inputs": [
  {
    "Name": "/layer3/layer3.5/relu_2/Relu_output_0",
    "Location": "Device",
    "Dimensions": [1,1024,14,14],
    "Format/Datatype": "Row major linear FP32"
  }],
  "Outputs": [
  {
    "Name": "Reformatted Input Tensor 0 to /layer4/layer4.0/downsample/downsample.0/Conv",
    "Location": "Device",
    "Dimensions": [1,1024,14,14],
    "Format/Datatype": "Channel major FP32 format"
  }],
  "ParameterType": "Reformat",
  "Origin": "REFORMAT",
  "TacticValue": "0x0000000000000000"
},{
  "Name": "/layer4/layer4.0/downsample/downsample.0/Conv",
  "LayerType": "CaskConvolution",
  "Inputs": [
  {
    "Name": "Reformatted Input Tensor 0 to /layer4/layer4.0/downsample/downsample.0/Conv",
    "Location": "Device",
    "Dimensions": [1,1024,14,14],
    "Format/Datatype": "Channel major FP32 format"
  }],
  "Outputs": [
  {
    "Name": "/layer4/layer4.0/downsample/downsample.0/Conv_output_0",
    "Location": "Device",
    "Dimensions": [1,2048,7,7],
    "Format/Datatype": "Channel major FP32 format"
  }],
  "ParameterType": "Convolution",
  "Kernel": [1,1],
  "PaddingMode": "kEXPLICIT_ROUND_DOWN",
  "PrePadding": [0,0],
  "PostPadding": [0,0],
  "Stride": [2,2],
  "Dilation": [1,1],
  "OutMaps": 2048,
  "Groups": 1,
  "Weights": {"Type": "Float", "Count": 2097152},
  "Bias": {"Type": "Float", "Count": 2048},
  "HasSparseWeights": 0,
  "HasDynamicFilter": 0,
  "HasDynamicBias": 0,
  "HasResidual": 0,
  "ConvXAsActInputIdx": -1,
  "BiasAsActInputIdx": -1,
  "ResAsActInputIdx": -1,
  "Activation": "NONE",
  "HasBias": 1,
  "HasReLU": 0,
  "TacticName": "sm80_xmma_fprop_implicit_gemm_f32f32_f32f32_f32_nhwckrsc_nhwc_tilesize32x32x8_stage3_warpsize1x2x1_g1_ffma_aligna4_alignc4",
  "TacticValue": "0x7121ec1db3f80c67"
},{
  "Name": "/layer4/layer4.0/conv3/Conv + /layer4/layer4.0/Add + /layer4/layer4.0/relu_2/Relu",
  "LayerType": "CaskConvolution",
  "Inputs": [
  {
    "Name": "/layer4/layer4.0/relu_1/Relu_output_0",
    "Location": "Device",
    "Dimensions": [1,512,7,7],
    "Format/Datatype": "Channel major FP32 format"
  },
  {
    "Name": "/layer4/layer4.0/downsample/downsample.0/Conv_output_0",
    "Location": "Device",
    "Dimensions": [1,2048,7,7],
    "Format/Datatype": "Channel major FP32 format"
  }],
  "Outputs": [
  {
    "Name": "Reformatted Output Tensor 0 to /layer4/layer4.0/conv3/Conv + /layer4/layer4.0/Add + /layer4/layer4.0/relu_2/Relu",
    "Location": "Device",
    "Dimensions": [1,2048,7,7],
    "Format/Datatype": "Channel major FP32 format"
  }],
  "ParameterType": "Convolution",
  "Kernel": [1,1],
  "PaddingMode": "kEXPLICIT_ROUND_DOWN",
  "PrePadding": [0,0],
  "PostPadding": [0,0],
  "Stride": [1,1],
  "Dilation": [1,1],
  "OutMaps": 2048,
  "Groups": 1,
  "Weights": {"Type": "Float", "Count": 1048576},
  "Bias": {"Type": "Float", "Count": 2048},
  "HasSparseWeights": 0,
  "HasDynamicFilter": 0,
  "HasDynamicBias": 0,
  "HasResidual": 1,
  "ConvXAsActInputIdx": -1,
  "BiasAsActInputIdx": -1,
  "ResAsActInputIdx": -1,
  "Activation": "RELU",
  "HasBias": 1,
  "HasReLU": 1,
  "TacticName": "sm80_xmma_fprop_implicit_gemm_f32f32_f32f32_f32_nhwckrsc_nhwc_tilesize32x32x8_stage3_warpsize1x2x1_g1_ffma_simple_t1r1s1_aligna4_alignc4",
  "TacticValue": "0x1fb90698107bb33a"
},{
  "Name": "Reformatting CopyNode for Output Tensor 0 to /layer4/layer4.0/conv3/Conv + /layer4/layer4.0/Add + /layer4/layer4.0/relu_2/Relu",
  "LayerType": "Reformat",
  "Inputs": [
  {
    "Name": "Reformatted Output Tensor 0 to /layer4/layer4.0/conv3/Conv + /layer4/layer4.0/Add + /layer4/layer4.0/relu_2/Relu",
    "Location": "Device",
    "Dimensions": [1,2048,7,7],
    "Format/Datatype": "Channel major FP32 format"
  }],
  "Outputs": [
  {
    "Name": "/layer4/layer4.0/relu_2/Relu_output_0",
    "Location": "Device",
    "Dimensions": [1,2048,7,7],
    "Format/Datatype": "Row major linear FP32"
  }],
  "ParameterType": "Reformat",
  "Origin": "REFORMAT",
  "TacticValue": "0x00000000000003e8"
},{
  "Name": "/layer4/layer4.1/conv1/Conv + /layer4/layer4.1/relu/Relu",
  "LayerType": "CudnnConvolution",
  "Inputs": [
  {
    "Name": "/layer4/layer4.0/relu_2/Relu_output_0",
    "Location": "Device",
    "Dimensions": [1,2048,7,7],
    "Format/Datatype": "Row major linear FP32"
  }],
  "Outputs": [
  {
    "Name": "/layer4/layer4.1/relu/Relu_output_0",
    "Location": "Device",
    "Dimensions": [1,512,7,7],
    "Format/Datatype": "Row major linear FP32"
  }],
  "ParameterType": "Convolution",
  "Kernel": [1,1],
  "PaddingMode": "kEXPLICIT_ROUND_DOWN",
  "PrePadding": [0,0],
  "PostPadding": [0,0],
  "Stride": [1,1],
  "Dilation": [1,1],
  "OutMaps": 512,
  "Groups": 1,
  "Weights": {"Type": "Float", "Count": 1048576},
  "Bias": {"Type": "Float", "Count": 512},
  "HasSparseWeights": 0,
  "HasDynamicFilter": 0,
  "HasDynamicBias": 0,
  "HasResidual": 0,
  "ConvXAsActInputIdx": -1,
  "BiasAsActInputIdx": -1,
  "ResAsActInputIdx": -1,
  "Activation": "RELU",
  "HasBias": 1,
  "TacticValue": "0x0000000000000001"
},{
  "Name": "/layer4/layer4.1/conv2/Conv + /layer4/layer4.1/relu_1/Relu",
  "LayerType": "FusedConvActConvolution",
  "Inputs": [
  {
    "Name": "/layer4/layer4.1/relu/Relu_output_0",
    "Location": "Device",
    "Dimensions": [1,512,7,7],
    "Format/Datatype": "Row major linear FP32"
  }],
  "Outputs": [
  {
    "Name": "/layer4/layer4.1/relu_1/Relu_output_0",
    "Location": "Device",
    "Dimensions": [1,512,7,7],
    "Format/Datatype": "Row major linear FP32"
  }],
  "ParameterType": "Convolution",
  "Kernel": [3,3],
  "PaddingMode": "kEXPLICIT_ROUND_DOWN",
  "PrePadding": [1,1],
  "PostPadding": [1,1],
  "Stride": [1,1],
  "Dilation": [1,1],
  "OutMaps": 512,
  "Groups": 1,
  "Weights": {"Type": "Float", "Count": 2359296},
  "Bias": {"Type": "Float", "Count": 512},
  "HasSparseWeights": 0,
  "HasDynamicFilter": 0,
  "HasDynamicBias": 0,
  "HasResidual": 0,
  "ConvXAsActInputIdx": -1,
  "BiasAsActInputIdx": -1,
  "ResAsActInputIdx": -1,
  "Activation": "RELU",
  "HasBias": 1,
  "ConvolutionTacticIndex": 36,
  "TacticValue": "0x000000000024ffff"
},{
  "Name": "/layer4/layer4.1/conv3/Conv + /layer4/layer4.1/Add + /layer4/layer4.1/relu_2/Relu",
  "LayerType": "CaskConvolution",
  "Inputs": [
  {
    "Name": "/layer4/layer4.1/relu_1/Relu_output_0",
    "Location": "Device",
    "Dimensions": [1,512,7,7],
    "Format/Datatype": "Row major linear FP32"
  },
  {
    "Name": "/layer4/layer4.0/relu_2/Relu_output_0",
    "Location": "Device",
    "Dimensions": [1,2048,7,7],
    "Format/Datatype": "Row major linear FP32"
  }],
  "Outputs": [
  {
    "Name": "/layer4/layer4.1/relu_2/Relu_output_0",
    "Location": "Device",
    "Dimensions": [1,2048,7,7],
    "Format/Datatype": "Row major linear FP32"
  }],
  "ParameterType": "Convolution",
  "Kernel": [1,1],
  "PaddingMode": "kEXPLICIT_ROUND_DOWN",
  "PrePadding": [0,0],
  "PostPadding": [0,0],
  "Stride": [1,1],
  "Dilation": [1,1],
  "OutMaps": 2048,
  "Groups": 1,
  "Weights": {"Type": "Float", "Count": 1048576},
  "Bias": {"Type": "Float", "Count": 2048},
  "HasSparseWeights": 0,
  "HasDynamicFilter": 0,
  "HasDynamicBias": 0,
  "HasResidual": 1,
  "ConvXAsActInputIdx": -1,
  "BiasAsActInputIdx": -1,
  "ResAsActInputIdx": -1,
  "Activation": "RELU",
  "HasBias": 1,
  "HasReLU": 1,
  "TacticName": "sm80_xmma_fprop_implicit_gemm_f32f32_f32f32_f32_nchwkcrs_nchw_tilesize32x32x8_stage3_warpsize1x2x1_g1_ffma_aligna4_alignc4",
  "TacticValue": "0xb0bf940d5e0f9f45"
},{
  "Name": "/layer4/layer4.2/conv1/Conv + /layer4/layer4.2/relu/Relu",
  "LayerType": "CudnnConvolution",
  "Inputs": [
  {
    "Name": "/layer4/layer4.1/relu_2/Relu_output_0",
    "Location": "Device",
    "Dimensions": [1,2048,7,7],
    "Format/Datatype": "Row major linear FP32"
  }],
  "Outputs": [
  {
    "Name": "/layer4/layer4.2/relu/Relu_output_0",
    "Location": "Device",
    "Dimensions": [1,512,7,7],
    "Format/Datatype": "Row major linear FP32"
  }],
  "ParameterType": "Convolution",
  "Kernel": [1,1],
  "PaddingMode": "kEXPLICIT_ROUND_DOWN",
  "PrePadding": [0,0],
  "PostPadding": [0,0],
  "Stride": [1,1],
  "Dilation": [1,1],
  "OutMaps": 512,
  "Groups": 1,
  "Weights": {"Type": "Float", "Count": 1048576},
  "Bias": {"Type": "Float", "Count": 512},
  "HasSparseWeights": 0,
  "HasDynamicFilter": 0,
  "HasDynamicBias": 0,
  "HasResidual": 0,
  "ConvXAsActInputIdx": -1,
  "BiasAsActInputIdx": -1,
  "ResAsActInputIdx": -1,
  "Activation": "RELU",
  "HasBias": 1,
  "TacticValue": "0x0000000000000001"
},{
  "Name": "/layer4/layer4.2/conv2/Conv + /layer4/layer4.2/relu_1/Relu",
  "LayerType": "FusedConvActConvolution",
  "Inputs": [
  {
    "Name": "/layer4/layer4.2/relu/Relu_output_0",
    "Location": "Device",
    "Dimensions": [1,512,7,7],
    "Format/Datatype": "Row major linear FP32"
  }],
  "Outputs": [
  {
    "Name": "/layer4/layer4.2/relu_1/Relu_output_0",
    "Location": "Device",
    "Dimensions": [1,512,7,7],
    "Format/Datatype": "Row major linear FP32"
  }],
  "ParameterType": "Convolution",
  "Kernel": [3,3],
  "PaddingMode": "kEXPLICIT_ROUND_DOWN",
  "PrePadding": [1,1],
  "PostPadding": [1,1],
  "Stride": [1,1],
  "Dilation": [1,1],
  "OutMaps": 512,
  "Groups": 1,
  "Weights": {"Type": "Float", "Count": 2359296},
  "Bias": {"Type": "Float", "Count": 512},
  "HasSparseWeights": 0,
  "HasDynamicFilter": 0,
  "HasDynamicBias": 0,
  "HasResidual": 0,
  "ConvXAsActInputIdx": -1,
  "BiasAsActInputIdx": -1,
  "ResAsActInputIdx": -1,
  "Activation": "RELU",
  "HasBias": 1,
  "ConvolutionTacticIndex": 36,
  "TacticValue": "0x000000000024ffff"
},{
  "Name": "/layer4/layer4.2/conv3/Conv + /layer4/layer4.2/Add + /layer4/layer4.2/relu_2/Relu",
  "LayerType": "CaskConvolution",
  "Inputs": [
  {
    "Name": "/layer4/layer4.2/relu_1/Relu_output_0",
    "Location": "Device",
    "Dimensions": [1,512,7,7],
    "Format/Datatype": "Row major linear FP32"
  },
  {
    "Name": "/layer4/layer4.1/relu_2/Relu_output_0",
    "Location": "Device",
    "Dimensions": [1,2048,7,7],
    "Format/Datatype": "Row major linear FP32"
  }],
  "Outputs": [
  {
    "Name": "/layer4/layer4.2/relu_2/Relu_output_0",
    "Location": "Device",
    "Dimensions": [1,2048,7,7],
    "Format/Datatype": "Row major linear FP32"
  }],
  "ParameterType": "Convolution",
  "Kernel": [1,1],
  "PaddingMode": "kEXPLICIT_ROUND_DOWN",
  "PrePadding": [0,0],
  "PostPadding": [0,0],
  "Stride": [1,1],
  "Dilation": [1,1],
  "OutMaps": 2048,
  "Groups": 1,
  "Weights": {"Type": "Float", "Count": 1048576},
  "Bias": {"Type": "Float", "Count": 2048},
  "HasSparseWeights": 0,
  "HasDynamicFilter": 0,
  "HasDynamicBias": 0,
  "HasResidual": 1,
  "ConvXAsActInputIdx": -1,
  "BiasAsActInputIdx": -1,
  "ResAsActInputIdx": -1,
  "Activation": "RELU",
  "HasBias": 1,
  "HasReLU": 1,
  "TacticName": "sm80_xmma_fprop_implicit_gemm_f32f32_f32f32_f32_nchwkcrs_nchw_tilesize32x32x8_stage3_warpsize1x2x1_g1_ffma_aligna4_alignc4",
  "TacticValue": "0xb0bf940d5e0f9f45"
},{
  "Name": "/avgpool/GlobalAveragePool",
  "LayerType": "CudnnPooling",
  "Inputs": [
  {
    "Name": "/layer4/layer4.2/relu_2/Relu_output_0",
    "Location": "Device",
    "Dimensions": [1,2048,7,7],
    "Format/Datatype": "Row major linear FP32"
  }],
  "Outputs": [
  {
    "Name": "/avgpool/GlobalAveragePool_output_0",
    "Location": "Device",
    "Dimensions": [1,2048,1,1],
    "Format/Datatype": "Row major linear FP32"
  }],
  "ParameterType": "Pooling",
  "PoolingType": "AVERAGE",
  "WindowSize": [7,7],
  "PaddingMode": "kEXPLICIT_ROUND_DOWN",
  "PrePadding": [0,0],
  "PostPadding": [0,0],
  "Stride": [1,1],
  "BlendFactor": 0,
  "AverageCountExcludesPadding": 1,
  "TacticValue": "0xffffffffffffffff"
},{
  "Name": "/fc/Gemm",
  "LayerType": "CaskGemmConvolution",
  "Inputs": [
  {
    "Name": "/avgpool/GlobalAveragePool_output_0",
    "Location": "Device",
    "Dimensions": [1,2048,1,1],
    "Format/Datatype": "Row major linear FP32"
  }],
  "Outputs": [
  {
    "Name": "/fc/Gemm_out_tensor",
    "Location": "Device",
    "Dimensions": [1,1000,1,1],
    "Format/Datatype": "Row major linear FP32"
  }],
  "ParameterType": "Convolution",
  "Kernel": [1,1],
  "PaddingMode": "kEXPLICIT_ROUND_DOWN",
  "PrePadding": [0,0],
  "PostPadding": [0,0],
  "Stride": [1,1],
  "Dilation": [1,1],
  "OutMaps": 1000,
  "Groups": 1,
  "Weights": {"Type": "Float", "Count": 2048000},
  "Bias": {"Type": "Float", "Count": 1000},
  "HasSparseWeights": 0,
  "HasDynamicFilter": 0,
  "HasDynamicBias": 0,
  "HasResidual": 0,
  "ConvXAsActInputIdx": -1,
  "BiasAsActInputIdx": -1,
  "ResAsActInputIdx": -1,
  "Activation": "NONE",
  "TacticName": "sm50_xmma_cublas_gemvx_f32f32_f32_f32_tn_n_int32_unit_n_launch_param4x32x32_strided_unit_stride",
  "TacticValue": "0x0000000000020460"
},{
  "Name": "reshape_after_/fc/Gemm",
  "LayerType": "NoOp",
  "Inputs": [
  {
    "Name": "/fc/Gemm_out_tensor",
    "Location": "Device",
    "Dimensions": [1,1000,1,1],
    "Format/Datatype": "Row major linear FP32"
  }],
  "Outputs": [
  {
    "Name": "output0",
    "Location": "Device",
    "Dimensions": [1,1000],
    "Format/Datatype": "Row major linear FP32"
  }],
  "TacticValue": "0x0000000000000000"
}],
"Bindings": ["input0"
,"output0"
]}
